// -----// IR Dump After PromoteBuffersToStack (promote-buffers-to-stack) //----- //
func.func @conv2d(%arg0: memref<1x3x64x64xf32>, %arg1: memref<1x6x58x58xf32>) {
  %0 = memref.get_global @__constant_6xf32 : memref<6xf32>
  %1 = memref.get_global @__constant_6x3x7x7xf32 : memref<6x3x7x7xf32>
  affine.for %arg2 = 0 to 1 {
    affine.for %arg3 = 0 to 6 {
      affine.for %arg4 = 0 to 58 {
        affine.for %arg5 = 0 to 58 {
          %2 = affine.load %0[%arg3] : memref<6xf32>
          affine.store %2, %arg1[%arg2, %arg3, %arg4, %arg5] : memref<1x6x58x58xf32>
        }
      }
    }
  }
  call @conv2d_kernel_0(%arg0, %1, %arg1) : (memref<1x3x64x64xf32>, memref<6x3x7x7xf32>, memref<1x6x58x58xf32>) -> ()
  return
}

// -----// IR Dump After PromoteBuffersToStack (promote-buffers-to-stack) //----- //
func.func private @conv2d_kernel_0(memref<1x3x64x64xf32>, memref<6x3x7x7xf32>, memref<1x6x58x58xf32>)

// -----// IR Dump After ArithExpandOps (arith-expand) //----- //
module attributes {torch.debug_module_name = "Conv2d"} {
  memref.global "private" constant @__constant_6x3x7x7xf32 : memref<6x3x7x7xf32> = dense<"…">
  memref.global "private" constant @__constant_6xf32 : memref<6xf32> = dense<[-0.0675533265, -0.0786442235, -7.646190e-02, -0.00229380699, -0.0799340755, -0.0737717897]>
  func.func @conv2d(%arg0: memref<1x3x64x64xf32>, %arg1: memref<1x6x58x58xf32>) {
    %0 = memref.get_global @__constant_6xf32 : memref<6xf32>
    %1 = memref.get_global @__constant_6x3x7x7xf32 : memref<6x3x7x7xf32>
    affine.for %arg2 = 0 to 1 {
      affine.for %arg3 = 0 to 6 {
        affine.for %arg4 = 0 to 58 {
          affine.for %arg5 = 0 to 58 {
            %2 = affine.load %0[%arg3] : memref<6xf32>
            affine.store %2, %arg1[%arg2, %arg3, %arg4, %arg5] : memref<1x6x58x58xf32>
          }
        }
      }
    }
    call @conv2d_kernel_0(%arg0, %1, %arg1) : (memref<1x3x64x64xf32>, memref<6x3x7x7xf32>, memref<1x6x58x58xf32>) -> ()
    return
  }
  func.func private @conv2d_kernel_0(memref<1x3x64x64xf32>, memref<6x3x7x7xf32>, memref<1x6x58x58xf32>)
}


// -----// IR Dump After ExpandOps (memref-expand) //----- //
module attributes {torch.debug_module_name = "Conv2d"} {
  memref.global "private" constant @__constant_6x3x7x7xf32 : memref<6x3x7x7xf32> = dense<"…">
  memref.global "private" constant @__constant_6xf32 : memref<6xf32> = dense<[-0.0675533265, -0.0786442235, -7.646190e-02, -0.00229380699, -0.0799340755, -0.0737717897]>
  func.func @conv2d(%arg0: memref<1x3x64x64xf32>, %arg1: memref<1x6x58x58xf32>) {
    %0 = memref.get_global @__constant_6xf32 : memref<6xf32>
    %1 = memref.get_global @__constant_6x3x7x7xf32 : memref<6x3x7x7xf32>
    affine.for %arg2 = 0 to 1 {
      affine.for %arg3 = 0 to 6 {
        affine.for %arg4 = 0 to 58 {
          affine.for %arg5 = 0 to 58 {
            %2 = affine.load %0[%arg3] : memref<6xf32>
            affine.store %2, %arg1[%arg2, %arg3, %arg4, %arg5] : memref<1x6x58x58xf32>
          }
        }
      }
    }
    call @conv2d_kernel_0(%arg0, %1, %arg1) : (memref<1x3x64x64xf32>, memref<6x3x7x7xf32>, memref<1x6x58x58xf32>) -> ()
    return
  }
  func.func private @conv2d_kernel_0(memref<1x3x64x64xf32>, memref<6x3x7x7xf32>, memref<1x6x58x58xf32>)
}


// -----// IR Dump After NormalizeMemRefs (normalize-memrefs) //----- //
module attributes {torch.debug_module_name = "Conv2d"} {
  memref.global "private" constant @__constant_6x3x7x7xf32 : memref<6x3x7x7xf32> = dense<"…">
  memref.global "private" constant @__constant_6xf32 : memref<6xf32> = dense<[-0.0675533265, -0.0786442235, -7.646190e-02, -0.00229380699, -0.0799340755, -0.0737717897]>
  func.func @conv2d(%arg0: memref<1x3x64x64xf32>, %arg1: memref<1x6x58x58xf32>) {
    %0 = memref.get_global @__constant_6xf32 : memref<6xf32>
    %1 = memref.get_global @__constant_6x3x7x7xf32 : memref<6x3x7x7xf32>
    affine.for %arg2 = 0 to 1 {
      affine.for %arg3 = 0 to 6 {
        affine.for %arg4 = 0 to 58 {
          affine.for %arg5 = 0 to 58 {
            %2 = affine.load %0[%arg3] : memref<6xf32>
            affine.store %2, %arg1[%arg2, %arg3, %arg4, %arg5] : memref<1x6x58x58xf32>
          }
        }
      }
    }
    call @conv2d_kernel_0(%arg0, %1, %arg1) : (memref<1x3x64x64xf32>, memref<6x3x7x7xf32>, memref<1x6x58x58xf32>) -> ()
    return
  }
  func.func private @conv2d_kernel_0(memref<1x3x64x64xf32>, memref<6x3x7x7xf32>, memref<1x6x58x58xf32>)
}


// -----// IR Dump After ExpandStridedMetadata (expand-strided-metadata) //----- //
module attributes {torch.debug_module_name = "Conv2d"} {
  memref.global "private" constant @__constant_6x3x7x7xf32 : memref<6x3x7x7xf32> = dense<"…">
  memref.global "private" constant @__constant_6xf32 : memref<6xf32> = dense<[-0.0675533265, -0.0786442235, -7.646190e-02, -0.00229380699, -0.0799340755, -0.0737717897]>
  func.func @conv2d(%arg0: memref<1x3x64x64xf32>, %arg1: memref<1x6x58x58xf32>) {
    %0 = memref.get_global @__constant_6xf32 : memref<6xf32>
    %1 = memref.get_global @__constant_6x3x7x7xf32 : memref<6x3x7x7xf32>
    affine.for %arg2 = 0 to 1 {
      affine.for %arg3 = 0 to 6 {
        affine.for %arg4 = 0 to 58 {
          affine.for %arg5 = 0 to 58 {
            %2 = affine.load %0[%arg3] : memref<6xf32>
            affine.store %2, %arg1[%arg2, %arg3, %arg4, %arg5] : memref<1x6x58x58xf32>
          }
        }
      }
    }
    call @conv2d_kernel_0(%arg0, %1, %arg1) : (memref<1x3x64x64xf32>, memref<6x3x7x7xf32>, memref<1x6x58x58xf32>) -> ()
    return
  }
  func.func private @conv2d_kernel_0(memref<1x3x64x64xf32>, memref<6x3x7x7xf32>, memref<1x6x58x58xf32>)
}


// -----// IR Dump After ConvertAffineToStandard (lower-affine) //----- //
module attributes {torch.debug_module_name = "Conv2d"} {
  memref.global "private" constant @__constant_6x3x7x7xf32 : memref<6x3x7x7xf32> = dense<"…">
  memref.global "private" constant @__constant_6xf32 : memref<6xf32> = dense<[-0.0675533265, -0.0786442235, -7.646190e-02, -0.00229380699, -0.0799340755, -0.0737717897]>
  func.func @conv2d(%arg0: memref<1x3x64x64xf32>, %arg1: memref<1x6x58x58xf32>) {
    %0 = memref.get_global @__constant_6xf32 : memref<6xf32>
    %1 = memref.get_global @__constant_6x3x7x7xf32 : memref<6x3x7x7xf32>
    %c0 = arith.constant 0 : index
    %c1 = arith.constant 1 : index
    %c1_0 = arith.constant 1 : index
    scf.for %arg2 = %c0 to %c1 step %c1_0 {
      %c0_1 = arith.constant 0 : index
      %c6 = arith.constant 6 : index
      %c1_2 = arith.constant 1 : index
      scf.for %arg3 = %c0_1 to %c6 step %c1_2 {
        %c0_3 = arith.constant 0 : index
        %c58 = arith.constant 58 : index
        %c1_4 = arith.constant 1 : index
        scf.for %arg4 = %c0_3 to %c58 step %c1_4 {
          %c0_5 = arith.constant 0 : index
          %c58_6 = arith.constant 58 : index
          %c1_7 = arith.constant 1 : index
          scf.for %arg5 = %c0_5 to %c58_6 step %c1_7 {
            %2 = memref.load %0[%arg3] : memref<6xf32>
            memref.store %2, %arg1[%arg2, %arg3, %arg4, %arg5] : memref<1x6x58x58xf32>
          }
        }
      }
    }
    call @conv2d_kernel_0(%arg0, %1, %arg1) : (memref<1x3x64x64xf32>, memref<6x3x7x7xf32>, memref<1x6x58x58xf32>) -> ()
    return
  }
  func.func private @conv2d_kernel_0(memref<1x3x64x64xf32>, memref<6x3x7x7xf32>, memref<1x6x58x58xf32>)
}


// -----// IR Dump After SCFForLoopCanonicalization (scf-for-loop-canonicalization) //----- //
module attributes {torch.debug_module_name = "Conv2d"} {
  memref.global "private" constant @__constant_6x3x7x7xf32 : memref<6x3x7x7xf32> = dense<"…">
  memref.global "private" constant @__constant_6xf32 : memref<6xf32> = dense<[-0.0675533265, -0.0786442235, -7.646190e-02, -0.00229380699, -0.0799340755, -0.0737717897]>
  func.func @conv2d(%arg0: memref<1x3x64x64xf32>, %arg1: memref<1x6x58x58xf32>) {
    %c58 = arith.constant 58 : index
    %c6 = arith.constant 6 : index
    %c1 = arith.constant 1 : index
    %c0 = arith.constant 0 : index
    %0 = memref.get_global @__constant_6xf32 : memref<6xf32>
    %1 = memref.get_global @__constant_6x3x7x7xf32 : memref<6x3x7x7xf32>
    scf.for %arg2 = %c0 to %c1 step %c1 {
      scf.for %arg3 = %c0 to %c6 step %c1 {
        scf.for %arg4 = %c0 to %c58 step %c1 {
          scf.for %arg5 = %c0 to %c58 step %c1 {
            %2 = memref.load %0[%arg3] : memref<6xf32>
            memref.store %2, %arg1[%arg2, %arg3, %arg4, %arg5] : memref<1x6x58x58xf32>
          }
        }
      }
    }
    call @conv2d_kernel_0(%arg0, %1, %arg1) : (memref<1x3x64x64xf32>, memref<6x3x7x7xf32>, memref<1x6x58x58xf32>) -> ()
    return
  }
  func.func private @conv2d_kernel_0(memref<1x3x64x64xf32>, memref<6x3x7x7xf32>, memref<1x6x58x58xf32>)
}


// -----// IR Dump After SCFToControlFlow (convert-scf-to-cf) //----- //
module attributes {torch.debug_module_name = "Conv2d"} {
  memref.global "private" constant @__constant_6x3x7x7xf32 : memref<6x3x7x7xf32> = dense<"…">
  memref.global "private" constant @__constant_6xf32 : memref<6xf32> = dense<[-0.0675533265, -0.0786442235, -7.646190e-02, -0.00229380699, -0.0799340755, -0.0737717897]>
  func.func @conv2d(%arg0: memref<1x3x64x64xf32>, %arg1: memref<1x6x58x58xf32>) {
    %c58 = arith.constant 58 : index
    %c6 = arith.constant 6 : index
    %c1 = arith.constant 1 : index
    %c0 = arith.constant 0 : index
    %0 = memref.get_global @__constant_6xf32 : memref<6xf32>
    %1 = memref.get_global @__constant_6x3x7x7xf32 : memref<6x3x7x7xf32>
    cf.br ^bb1(%c0 : index)
  ^bb1(%2: index):  // 2 preds: ^bb0, ^bb11
    %3 = arith.cmpi slt, %2, %c1 : index
    cf.cond_br %3, ^bb2, ^bb12
  ^bb2:  // pred: ^bb1
    cf.br ^bb3(%c0 : index)
  ^bb3(%4: index):  // 2 preds: ^bb2, ^bb10
    %5 = arith.cmpi slt, %4, %c6 : index
    cf.cond_br %5, ^bb4, ^bb11
  ^bb4:  // pred: ^bb3
    cf.br ^bb5(%c0 : index)
  ^bb5(%6: index):  // 2 preds: ^bb4, ^bb9
    %7 = arith.cmpi slt, %6, %c58 : index
    cf.cond_br %7, ^bb6, ^bb10
  ^bb6:  // pred: ^bb5
    cf.br ^bb7(%c0 : index)
  ^bb7(%8: index):  // 2 preds: ^bb6, ^bb8
    %9 = arith.cmpi slt, %8, %c58 : index
    cf.cond_br %9, ^bb8, ^bb9
  ^bb8:  // pred: ^bb7
    %10 = memref.load %0[%4] : memref<6xf32>
    memref.store %10, %arg1[%2, %4, %6, %8] : memref<1x6x58x58xf32>
    %11 = arith.addi %8, %c1 : index
    cf.br ^bb7(%11 : index)
  ^bb9:  // pred: ^bb7
    %12 = arith.addi %6, %c1 : index
    cf.br ^bb5(%12 : index)
  ^bb10:  // pred: ^bb5
    %13 = arith.addi %4, %c1 : index
    cf.br ^bb3(%13 : index)
  ^bb11:  // pred: ^bb3
    %14 = arith.addi %2, %c1 : index
    cf.br ^bb1(%14 : index)
  ^bb12:  // pred: ^bb1
    call @conv2d_kernel_0(%arg0, %1, %arg1) : (memref<1x3x64x64xf32>, memref<6x3x7x7xf32>, memref<1x6x58x58xf32>) -> ()
    return
  }
  func.func private @conv2d_kernel_0(memref<1x3x64x64xf32>, memref<6x3x7x7xf32>, memref<1x6x58x58xf32>)
}


// -----// IR Dump After ConvertMathToLLVMPass (convert-math-to-llvm) //----- //
module attributes {torch.debug_module_name = "Conv2d"} {
  memref.global "private" constant @__constant_6x3x7x7xf32 : memref<6x3x7x7xf32> = dense<"…">
  memref.global "private" constant @__constant_6xf32 : memref<6xf32> = dense<[-0.0675533265, -0.0786442235, -7.646190e-02, -0.00229380699, -0.0799340755, -0.0737717897]>
  func.func @conv2d(%arg0: memref<1x3x64x64xf32>, %arg1: memref<1x6x58x58xf32>) {
    %c58 = arith.constant 58 : index
    %c6 = arith.constant 6 : index
    %c1 = arith.constant 1 : index
    %c0 = arith.constant 0 : index
    %0 = memref.get_global @__constant_6xf32 : memref<6xf32>
    %1 = memref.get_global @__constant_6x3x7x7xf32 : memref<6x3x7x7xf32>
    cf.br ^bb1(%c0 : index)
  ^bb1(%2: index):  // 2 preds: ^bb0, ^bb11
    %3 = arith.cmpi slt, %2, %c1 : index
    cf.cond_br %3, ^bb2, ^bb12
  ^bb2:  // pred: ^bb1
    cf.br ^bb3(%c0 : index)
  ^bb3(%4: index):  // 2 preds: ^bb2, ^bb10
    %5 = arith.cmpi slt, %4, %c6 : index
    cf.cond_br %5, ^bb4, ^bb11
  ^bb4:  // pred: ^bb3
    cf.br ^bb5(%c0 : index)
  ^bb5(%6: index):  // 2 preds: ^bb4, ^bb9
    %7 = arith.cmpi slt, %6, %c58 : index
    cf.cond_br %7, ^bb6, ^bb10
  ^bb6:  // pred: ^bb5
    cf.br ^bb7(%c0 : index)
  ^bb7(%8: index):  // 2 preds: ^bb6, ^bb8
    %9 = arith.cmpi slt, %8, %c58 : index
    cf.cond_br %9, ^bb8, ^bb9
  ^bb8:  // pred: ^bb7
    %10 = memref.load %0[%4] : memref<6xf32>
    memref.store %10, %arg1[%2, %4, %6, %8] : memref<1x6x58x58xf32>
    %11 = arith.addi %8, %c1 : index
    cf.br ^bb7(%11 : index)
  ^bb9:  // pred: ^bb7
    %12 = arith.addi %6, %c1 : index
    cf.br ^bb5(%12 : index)
  ^bb10:  // pred: ^bb5
    %13 = arith.addi %4, %c1 : index
    cf.br ^bb3(%13 : index)
  ^bb11:  // pred: ^bb3
    %14 = arith.addi %2, %c1 : index
    cf.br ^bb1(%14 : index)
  ^bb12:  // pred: ^bb1
    call @conv2d_kernel_0(%arg0, %1, %arg1) : (memref<1x3x64x64xf32>, memref<6x3x7x7xf32>, memref<1x6x58x58xf32>) -> ()
    return
  }
  func.func private @conv2d_kernel_0(memref<1x3x64x64xf32>, memref<6x3x7x7xf32>, memref<1x6x58x58xf32>)
}


// -----// IR Dump After ConvertMathToLibm (convert-math-to-libm) //----- //
module attributes {torch.debug_module_name = "Conv2d"} {
  memref.global "private" constant @__constant_6x3x7x7xf32 : memref<6x3x7x7xf32> = dense<"…">
  memref.global "private" constant @__constant_6xf32 : memref<6xf32> = dense<[-0.0675533265, -0.0786442235, -7.646190e-02, -0.00229380699, -0.0799340755, -0.0737717897]>
  func.func @conv2d(%arg0: memref<1x3x64x64xf32>, %arg1: memref<1x6x58x58xf32>) {
    %c58 = arith.constant 58 : index
    %c6 = arith.constant 6 : index
    %c1 = arith.constant 1 : index
    %c0 = arith.constant 0 : index
    %0 = memref.get_global @__constant_6xf32 : memref<6xf32>
    %1 = memref.get_global @__constant_6x3x7x7xf32 : memref<6x3x7x7xf32>
    cf.br ^bb1(%c0 : index)
  ^bb1(%2: index):  // 2 preds: ^bb0, ^bb11
    %3 = arith.cmpi slt, %2, %c1 : index
    cf.cond_br %3, ^bb2, ^bb12
  ^bb2:  // pred: ^bb1
    cf.br ^bb3(%c0 : index)
  ^bb3(%4: index):  // 2 preds: ^bb2, ^bb10
    %5 = arith.cmpi slt, %4, %c6 : index
    cf.cond_br %5, ^bb4, ^bb11
  ^bb4:  // pred: ^bb3
    cf.br ^bb5(%c0 : index)
  ^bb5(%6: index):  // 2 preds: ^bb4, ^bb9
    %7 = arith.cmpi slt, %6, %c58 : index
    cf.cond_br %7, ^bb6, ^bb10
  ^bb6:  // pred: ^bb5
    cf.br ^bb7(%c0 : index)
  ^bb7(%8: index):  // 2 preds: ^bb6, ^bb8
    %9 = arith.cmpi slt, %8, %c58 : index
    cf.cond_br %9, ^bb8, ^bb9
  ^bb8:  // pred: ^bb7
    %10 = memref.load %0[%4] : memref<6xf32>
    memref.store %10, %arg1[%2, %4, %6, %8] : memref<1x6x58x58xf32>
    %11 = arith.addi %8, %c1 : index
    cf.br ^bb7(%11 : index)
  ^bb9:  // pred: ^bb7
    %12 = arith.addi %6, %c1 : index
    cf.br ^bb5(%12 : index)
  ^bb10:  // pred: ^bb5
    %13 = arith.addi %4, %c1 : index
    cf.br ^bb3(%13 : index)
  ^bb11:  // pred: ^bb3
    %14 = arith.addi %2, %c1 : index
    cf.br ^bb1(%14 : index)
  ^bb12:  // pred: ^bb1
    call @conv2d_kernel_0(%arg0, %1, %arg1) : (memref<1x3x64x64xf32>, memref<6x3x7x7xf32>, memref<1x6x58x58xf32>) -> ()
    return
  }
  func.func private @conv2d_kernel_0(memref<1x3x64x64xf32>, memref<6x3x7x7xf32>, memref<1x6x58x58xf32>)
}


// -----// IR Dump After ArithToLLVMConversionPass (convert-arith-to-llvm) //----- //
module attributes {torch.debug_module_name = "Conv2d"} {
  memref.global "private" constant @__constant_6x3x7x7xf32 : memref<6x3x7x7xf32> = dense<"…">
  memref.global "private" constant @__constant_6xf32 : memref<6xf32> = dense<[-0.0675533265, -0.0786442235, -7.646190e-02, -0.00229380699, -0.0799340755, -0.0737717897]>
  func.func @conv2d(%arg0: memref<1x3x64x64xf32>, %arg1: memref<1x6x58x58xf32>) {
    %0 = llvm.mlir.constant(58 : index) : i64
    %1 = llvm.mlir.constant(6 : index) : i64
    %2 = llvm.mlir.constant(1 : index) : i64
    %3 = llvm.mlir.constant(0 : index) : i64
    %4 = builtin.unrealized_conversion_cast %3 : i64 to index
    %5 = memref.get_global @__constant_6xf32 : memref<6xf32>
    %6 = memref.get_global @__constant_6x3x7x7xf32 : memref<6x3x7x7xf32>
    cf.br ^bb1(%4 : index)
  ^bb1(%7: index):  // 2 preds: ^bb0, ^bb11
    %8 = builtin.unrealized_conversion_cast %7 : index to i64
    %9 = llvm.icmp "slt" %8, %2 : i64
    cf.cond_br %9, ^bb2, ^bb12
  ^bb2:  // pred: ^bb1
    cf.br ^bb3(%4 : index)
  ^bb3(%10: index):  // 2 preds: ^bb2, ^bb10
    %11 = builtin.unrealized_conversion_cast %10 : index to i64
    %12 = llvm.icmp "slt" %11, %1 : i64
    cf.cond_br %12, ^bb4, ^bb11
  ^bb4:  // pred: ^bb3
    cf.br ^bb5(%4 : index)
  ^bb5(%13: index):  // 2 preds: ^bb4, ^bb9
    %14 = builtin.unrealized_conversion_cast %13 : index to i64
    %15 = llvm.icmp "slt" %14, %0 : i64
    cf.cond_br %15, ^bb6, ^bb10
  ^bb6:  // pred: ^bb5
    cf.br ^bb7(%4 : index)
  ^bb7(%16: index):  // 2 preds: ^bb6, ^bb8
    %17 = builtin.unrealized_conversion_cast %16 : index to i64
    %18 = llvm.icmp "slt" %17, %0 : i64
    cf.cond_br %18, ^bb8, ^bb9
  ^bb8:  // pred: ^bb7
    %19 = memref.load %5[%10] : memref<6xf32>
    memref.store %19, %arg1[%7, %10, %13, %16] : memref<1x6x58x58xf32>
    %20 = llvm.add %17, %2  : i64
    %21 = builtin.unrealized_conversion_cast %20 : i64 to index
    cf.br ^bb7(%21 : index)
  ^bb9:  // pred: ^bb7
    %22 = llvm.add %14, %2  : i64
    %23 = builtin.unrealized_conversion_cast %22 : i64 to index
    cf.br ^bb5(%23 : index)
  ^bb10:  // pred: ^bb5
    %24 = llvm.add %11, %2  : i64
    %25 = builtin.unrealized_conversion_cast %24 : i64 to index
    cf.br ^bb3(%25 : index)
  ^bb11:  // pred: ^bb3
    %26 = llvm.add %8, %2  : i64
    %27 = builtin.unrealized_conversion_cast %26 : i64 to index
    cf.br ^bb1(%27 : index)
  ^bb12:  // pred: ^bb1
    call @conv2d_kernel_0(%arg0, %6, %arg1) : (memref<1x3x64x64xf32>, memref<6x3x7x7xf32>, memref<1x6x58x58xf32>) -> ()
    return
  }
  func.func private @conv2d_kernel_0(memref<1x3x64x64xf32>, memref<6x3x7x7xf32>, memref<1x6x58x58xf32>)
}


// -----// IR Dump After NormalizeMemRefs (normalize-memrefs) //----- //
module attributes {torch.debug_module_name = "Conv2d"} {
  memref.global "private" constant @__constant_6x3x7x7xf32 : memref<6x3x7x7xf32> = dense<"…">
  memref.global "private" constant @__constant_6xf32 : memref<6xf32> = dense<[-0.0675533265, -0.0786442235, -7.646190e-02, -0.00229380699, -0.0799340755, -0.0737717897]>
  func.func @conv2d(%arg0: memref<1x3x64x64xf32>, %arg1: memref<1x6x58x58xf32>) {
    %0 = llvm.mlir.constant(58 : index) : i64
    %1 = llvm.mlir.constant(6 : index) : i64
    %2 = llvm.mlir.constant(1 : index) : i64
    %3 = llvm.mlir.constant(0 : index) : i64
    %4 = builtin.unrealized_conversion_cast %3 : i64 to index
    %5 = memref.get_global @__constant_6xf32 : memref<6xf32>
    %6 = memref.get_global @__constant_6x3x7x7xf32 : memref<6x3x7x7xf32>
    cf.br ^bb1(%4 : index)
  ^bb1(%7: index):  // 2 preds: ^bb0, ^bb11
    %8 = builtin.unrealized_conversion_cast %7 : index to i64
    %9 = llvm.icmp "slt" %8, %2 : i64
    cf.cond_br %9, ^bb2, ^bb12
  ^bb2:  // pred: ^bb1
    cf.br ^bb3(%4 : index)
  ^bb3(%10: index):  // 2 preds: ^bb2, ^bb10
    %11 = builtin.unrealized_conversion_cast %10 : index to i64
    %12 = llvm.icmp "slt" %11, %1 : i64
    cf.cond_br %12, ^bb4, ^bb11
  ^bb4:  // pred: ^bb3
    cf.br ^bb5(%4 : index)
  ^bb5(%13: index):  // 2 preds: ^bb4, ^bb9
    %14 = builtin.unrealized_conversion_cast %13 : index to i64
    %15 = llvm.icmp "slt" %14, %0 : i64
    cf.cond_br %15, ^bb6, ^bb10
  ^bb6:  // pred: ^bb5
    cf.br ^bb7(%4 : index)
  ^bb7(%16: index):  // 2 preds: ^bb6, ^bb8
    %17 = builtin.unrealized_conversion_cast %16 : index to i64
    %18 = llvm.icmp "slt" %17, %0 : i64
    cf.cond_br %18, ^bb8, ^bb9
  ^bb8:  // pred: ^bb7
    %19 = memref.load %5[%10] : memref<6xf32>
    memref.store %19, %arg1[%7, %10, %13, %16] : memref<1x6x58x58xf32>
    %20 = llvm.add %17, %2  : i64
    %21 = builtin.unrealized_conversion_cast %20 : i64 to index
    cf.br ^bb7(%21 : index)
  ^bb9:  // pred: ^bb7
    %22 = llvm.add %14, %2  : i64
    %23 = builtin.unrealized_conversion_cast %22 : i64 to index
    cf.br ^bb5(%23 : index)
  ^bb10:  // pred: ^bb5
    %24 = llvm.add %11, %2  : i64
    %25 = builtin.unrealized_conversion_cast %24 : i64 to index
    cf.br ^bb3(%25 : index)
  ^bb11:  // pred: ^bb3
    %26 = llvm.add %8, %2  : i64
    %27 = builtin.unrealized_conversion_cast %26 : i64 to index
    cf.br ^bb1(%27 : index)
  ^bb12:  // pred: ^bb1
    call @conv2d_kernel_0(%arg0, %6, %arg1) : (memref<1x3x64x64xf32>, memref<6x3x7x7xf32>, memref<1x6x58x58xf32>) -> ()
    return
  }
  func.func private @conv2d_kernel_0(memref<1x3x64x64xf32>, memref<6x3x7x7xf32>, memref<1x6x58x58xf32>)
}


// -----// IR Dump After FinalizeMemRefToLLVMConversionPass (finalize-memref-to-llvm) //----- //
module attributes {torch.debug_module_name = "Conv2d"} {
  llvm.mlir.global private constant @__constant_6x3x7x7xf32(dense<"…"> : tensor<6x3x7x7xf32>) {addr_space = 0 : i32} : !llvm.array<6 x array<3 x array<7 x array<7 x f32>>>>
  llvm.mlir.global private constant @__constant_6xf32(dense<[-0.0675533265, -0.0786442235, -7.646190e-02, -0.00229380699, -0.0799340755, -0.0737717897]> : tensor<6xf32>) {addr_space = 0 : i32} : !llvm.array<6 x f32>
  func.func @conv2d(%arg0: memref<1x3x64x64xf32>, %arg1: memref<1x6x58x58xf32>) {
    %0 = builtin.unrealized_conversion_cast %arg1 : memref<1x6x58x58xf32> to !llvm.struct<(ptr, ptr, i64, array<4 x i64>, array<4 x i64>)>
    %1 = llvm.mlir.constant(58 : index) : i64
    %2 = llvm.mlir.constant(6 : index) : i64
    %3 = llvm.mlir.constant(1 : index) : i64
    %4 = llvm.mlir.constant(0 : index) : i64
    %5 = builtin.unrealized_conversion_cast %4 : i64 to index
    %6 = llvm.mlir.constant(6 : index) : i64
    %7 = llvm.mlir.constant(1 : index) : i64
    %8 = llvm.mlir.zero : !llvm.ptr
    %9 = llvm.getelementptr %8[%6] : (!llvm.ptr, i64) -> !llvm.ptr, f32
    %10 = llvm.ptrtoint %9 : !llvm.ptr to i64
    %11 = llvm.mlir.addressof @__constant_6xf32 : !llvm.ptr
    %12 = llvm.getelementptr %11[0, 0] : (!llvm.ptr) -> !llvm.ptr, !llvm.array<6 x f32>
    %13 = llvm.mlir.constant(3735928559 : index) : i64
    %14 = llvm.inttoptr %13 : i64 to !llvm.ptr
    %15 = llvm.mlir.undef : !llvm.struct<(ptr, ptr, i64, array<1 x i64>, array<1 x i64>)>
    %16 = llvm.insertvalue %14, %15[0] : !llvm.struct<(ptr, ptr, i64, array<1 x i64>, array<1 x i64>)> 
    %17 = llvm.insertvalue %12, %16[1] : !llvm.struct<(ptr, ptr, i64, array<1 x i64>, array<1 x i64>)> 
    %18 = llvm.mlir.constant(0 : index) : i64
    %19 = llvm.insertvalue %18, %17[2] : !llvm.struct<(ptr, ptr, i64, array<1 x i64>, array<1 x i64>)> 
    %20 = llvm.insertvalue %6, %19[3, 0] : !llvm.struct<(ptr, ptr, i64, array<1 x i64>, array<1 x i64>)> 
    %21 = llvm.insertvalue %7, %20[4, 0] : !llvm.struct<(ptr, ptr, i64, array<1 x i64>, array<1 x i64>)> 
    %22 = llvm.mlir.constant(6 : index) : i64
    %23 = llvm.mlir.constant(3 : index) : i64
    %24 = llvm.mlir.constant(7 : index) : i64
    %25 = llvm.mlir.constant(7 : index) : i64
    %26 = llvm.mlir.constant(1 : index) : i64
    %27 = llvm.mlir.constant(49 : index) : i64
    %28 = llvm.mlir.constant(147 : index) : i64
    %29 = llvm.mlir.constant(882 : index) : i64
    %30 = llvm.mlir.zero : !llvm.ptr
    %31 = llvm.getelementptr %30[%29] : (!llvm.ptr, i64) -> !llvm.ptr, f32
    %32 = llvm.ptrtoint %31 : !llvm.ptr to i64
    %33 = llvm.mlir.addressof @__constant_6x3x7x7xf32 : !llvm.ptr
    %34 = llvm.getelementptr %33[0, 0, 0, 0, 0] : (!llvm.ptr) -> !llvm.ptr, !llvm.array<6 x array<3 x array<7 x array<7 x f32>>>>
    %35 = llvm.mlir.constant(3735928559 : index) : i64
    %36 = llvm.inttoptr %35 : i64 to !llvm.ptr
    %37 = llvm.mlir.undef : !llvm.struct<(ptr, ptr, i64, array<4 x i64>, array<4 x i64>)>
    %38 = llvm.insertvalue %36, %37[0] : !llvm.struct<(ptr, ptr, i64, array<4 x i64>, array<4 x i64>)> 
    %39 = llvm.insertvalue %34, %38[1] : !llvm.struct<(ptr, ptr, i64, array<4 x i64>, array<4 x i64>)> 
    %40 = llvm.mlir.constant(0 : index) : i64
    %41 = llvm.insertvalue %40, %39[2] : !llvm.struct<(ptr, ptr, i64, array<4 x i64>, array<4 x i64>)> 
    %42 = llvm.insertvalue %22, %41[3, 0] : !llvm.struct<(ptr, ptr, i64, array<4 x i64>, array<4 x i64>)> 
    %43 = llvm.insertvalue %23, %42[3, 1] : !llvm.struct<(ptr, ptr, i64, array<4 x i64>, array<4 x i64>)> 
    %44 = llvm.insertvalue %24, %43[3, 2] : !llvm.struct<(ptr, ptr, i64, array<4 x i64>, array<4 x i64>)> 
    %45 = llvm.insertvalue %25, %44[3, 3] : !llvm.struct<(ptr, ptr, i64, array<4 x i64>, array<4 x i64>)> 
    %46 = llvm.insertvalue %28, %45[4, 0] : !llvm.struct<(ptr, ptr, i64, array<4 x i64>, array<4 x i64>)> 
    %47 = llvm.insertvalue %27, %46[4, 1] : !llvm.struct<(ptr, ptr, i64, array<4 x i64>, array<4 x i64>)> 
    %48 = llvm.insertvalue %25, %47[4, 2] : !llvm.struct<(ptr, ptr, i64, array<4 x i64>, array<4 x i64>)> 
    %49 = llvm.insertvalue %26, %48[4, 3] : !llvm.struct<(ptr, ptr, i64, array<4 x i64>, array<4 x i64>)> 
    %50 = builtin.unrealized_conversion_cast %49 : !llvm.struct<(ptr, ptr, i64, array<4 x i64>, array<4 x i64>)> to memref<6x3x7x7xf32>
    cf.br ^bb1(%5 : index)
  ^bb1(%51: index):  // 2 preds: ^bb0, ^bb11
    %52 = builtin.unrealized_conversion_cast %51 : index to i64
    %53 = builtin.unrealized_conversion_cast %51 : index to i64
    %54 = llvm.icmp "slt" %53, %3 : i64
    cf.cond_br %54, ^bb2, ^bb12
  ^bb2:  // pred: ^bb1
    cf.br ^bb3(%5 : index)
  ^bb3(%55: index):  // 2 preds: ^bb2, ^bb10
    %56 = builtin.unrealized_conversion_cast %55 : index to i64
    %57 = builtin.unrealized_conversion_cast %55 : index to i64
    %58 = llvm.icmp "slt" %57, %2 : i64
    cf.cond_br %58, ^bb4, ^bb11
  ^bb4:  // pred: ^bb3
    cf.br ^bb5(%5 : index)
  ^bb5(%59: index):  // 2 preds: ^bb4, ^bb9
    %60 = builtin.unrealized_conversion_cast %59 : index to i64
    %61 = builtin.unrealized_conversion_cast %59 : index to i64
    %62 = llvm.icmp "slt" %61, %1 : i64
    cf.cond_br %62, ^bb6, ^bb10
  ^bb6:  // pred: ^bb5
    cf.br ^bb7(%5 : index)
  ^bb7(%63: index):  // 2 preds: ^bb6, ^bb8
    %64 = builtin.unrealized_conversion_cast %63 : index to i64
    %65 = builtin.unrealized_conversion_cast %63 : index to i64
    %66 = llvm.icmp "slt" %65, %1 : i64
    cf.cond_br %66, ^bb8, ^bb9
  ^bb8:  // pred: ^bb7
    %67 = llvm.extractvalue %21[1] : !llvm.struct<(ptr, ptr, i64, array<1 x i64>, array<1 x i64>)> 
    %68 = llvm.getelementptr %67[%56] : (!llvm.ptr, i64) -> !llvm.ptr, f32
    %69 = llvm.load %68 : !llvm.ptr -> f32
    %70 = llvm.extractvalue %0[1] : !llvm.struct<(ptr, ptr, i64, array<4 x i64>, array<4 x i64>)> 
    %71 = llvm.mlir.constant(20184 : index) : i64
    %72 = llvm.mul %52, %71  : i64
    %73 = llvm.mlir.constant(3364 : index) : i64
    %74 = llvm.mul %56, %73  : i64
    %75 = llvm.add %72, %74  : i64
    %76 = llvm.mlir.constant(58 : index) : i64
    %77 = llvm.mul %60, %76  : i64
    %78 = llvm.add %75, %77  : i64
    %79 = llvm.add %78, %64  : i64
    %80 = llvm.getelementptr %70[%79] : (!llvm.ptr, i64) -> !llvm.ptr, f32
    llvm.store %69, %80 : f32, !llvm.ptr
    %81 = llvm.add %65, %3  : i64
    %82 = builtin.unrealized_conversion_cast %81 : i64 to index
    cf.br ^bb7(%82 : index)
  ^bb9:  // pred: ^bb7
    %83 = llvm.add %61, %3  : i64
    %84 = builtin.unrealized_conversion_cast %83 : i64 to index
    cf.br ^bb5(%84 : index)
  ^bb10:  // pred: ^bb5
    %85 = llvm.add %57, %3  : i64
    %86 = builtin.unrealized_conversion_cast %85 : i64 to index
    cf.br ^bb3(%86 : index)
  ^bb11:  // pred: ^bb3
    %87 = llvm.add %53, %3  : i64
    %88 = builtin.unrealized_conversion_cast %87 : i64 to index
    cf.br ^bb1(%88 : index)
  ^bb12:  // pred: ^bb1
    call @conv2d_kernel_0(%arg0, %50, %arg1) : (memref<1x3x64x64xf32>, memref<6x3x7x7xf32>, memref<1x6x58x58xf32>) -> ()
    return
  }
  func.func private @conv2d_kernel_0(memref<1x3x64x64xf32>, memref<6x3x7x7xf32>, memref<1x6x58x58xf32>)
}


// -----// IR Dump After ExpandOps (memref-expand) //----- //
module attributes {torch.debug_module_name = "Conv2d"} {
  llvm.mlir.global private constant @__constant_6x3x7x7xf32(dense<"…"> : tensor<6x3x7x7xf32>) {addr_space = 0 : i32} : !llvm.array<6 x array<3 x array<7 x array<7 x f32>>>>
  llvm.mlir.global private constant @__constant_6xf32(dense<[-0.0675533265, -0.0786442235, -7.646190e-02, -0.00229380699, -0.0799340755, -0.0737717897]> : tensor<6xf32>) {addr_space = 0 : i32} : !llvm.array<6 x f32>
  func.func @conv2d(%arg0: memref<1x3x64x64xf32>, %arg1: memref<1x6x58x58xf32>) {
    %0 = builtin.unrealized_conversion_cast %arg1 : memref<1x6x58x58xf32> to !llvm.struct<(ptr, ptr, i64, array<4 x i64>, array<4 x i64>)>
    %1 = llvm.mlir.constant(58 : index) : i64
    %2 = llvm.mlir.constant(6 : index) : i64
    %3 = llvm.mlir.constant(1 : index) : i64
    %4 = llvm.mlir.constant(0 : index) : i64
    %5 = builtin.unrealized_conversion_cast %4 : i64 to index
    %6 = llvm.mlir.constant(6 : index) : i64
    %7 = llvm.mlir.constant(1 : index) : i64
    %8 = llvm.mlir.zero : !llvm.ptr
    %9 = llvm.getelementptr %8[6] : (!llvm.ptr) -> !llvm.ptr, f32
    %10 = llvm.ptrtoint %9 : !llvm.ptr to i64
    %11 = llvm.mlir.addressof @__constant_6xf32 : !llvm.ptr
    %12 = llvm.getelementptr %11[0, 0] : (!llvm.ptr) -> !llvm.ptr, !llvm.array<6 x f32>
    %13 = llvm.mlir.constant(3735928559 : index) : i64
    %14 = llvm.inttoptr %13 : i64 to !llvm.ptr
    %15 = llvm.mlir.undef : !llvm.struct<(ptr, ptr, i64, array<1 x i64>, array<1 x i64>)>
    %16 = llvm.insertvalue %14, %15[0] : !llvm.struct<(ptr, ptr, i64, array<1 x i64>, array<1 x i64>)> 
    %17 = llvm.insertvalue %12, %16[1] : !llvm.struct<(ptr, ptr, i64, array<1 x i64>, array<1 x i64>)> 
    %18 = llvm.mlir.constant(0 : index) : i64
    %19 = llvm.insertvalue %18, %17[2] : !llvm.struct<(ptr, ptr, i64, array<1 x i64>, array<1 x i64>)> 
    %20 = llvm.insertvalue %6, %19[3, 0] : !llvm.struct<(ptr, ptr, i64, array<1 x i64>, array<1 x i64>)> 
    %21 = llvm.insertvalue %7, %20[4, 0] : !llvm.struct<(ptr, ptr, i64, array<1 x i64>, array<1 x i64>)> 
    %22 = llvm.mlir.constant(6 : index) : i64
    %23 = llvm.mlir.constant(3 : index) : i64
    %24 = llvm.mlir.constant(7 : index) : i64
    %25 = llvm.mlir.constant(7 : index) : i64
    %26 = llvm.mlir.constant(1 : index) : i64
    %27 = llvm.mlir.constant(49 : index) : i64
    %28 = llvm.mlir.constant(147 : index) : i64
    %29 = llvm.mlir.constant(882 : index) : i64
    %30 = llvm.mlir.zero : !llvm.ptr
    %31 = llvm.getelementptr %30[882] : (!llvm.ptr) -> !llvm.ptr, f32
    %32 = llvm.ptrtoint %31 : !llvm.ptr to i64
    %33 = llvm.mlir.addressof @__constant_6x3x7x7xf32 : !llvm.ptr
    %34 = llvm.getelementptr %33[0, 0, 0, 0, 0] : (!llvm.ptr) -> !llvm.ptr, !llvm.array<6 x array<3 x array<7 x array<7 x f32>>>>
    %35 = llvm.mlir.constant(3735928559 : index) : i64
    %36 = llvm.inttoptr %35 : i64 to !llvm.ptr
    %37 = llvm.mlir.undef : !llvm.struct<(ptr, ptr, i64, array<4 x i64>, array<4 x i64>)>
    %38 = llvm.insertvalue %36, %37[0] : !llvm.struct<(ptr, ptr, i64, array<4 x i64>, array<4 x i64>)> 
    %39 = llvm.insertvalue %34, %38[1] : !llvm.struct<(ptr, ptr, i64, array<4 x i64>, array<4 x i64>)> 
    %40 = llvm.mlir.constant(0 : index) : i64
    %41 = llvm.insertvalue %40, %39[2] : !llvm.struct<(ptr, ptr, i64, array<4 x i64>, array<4 x i64>)> 
    %42 = llvm.insertvalue %22, %41[3, 0] : !llvm.struct<(ptr, ptr, i64, array<4 x i64>, array<4 x i64>)> 
    %43 = llvm.insertvalue %23, %42[3, 1] : !llvm.struct<(ptr, ptr, i64, array<4 x i64>, array<4 x i64>)> 
    %44 = llvm.insertvalue %24, %43[3, 2] : !llvm.struct<(ptr, ptr, i64, array<4 x i64>, array<4 x i64>)> 
    %45 = llvm.insertvalue %25, %44[3, 3] : !llvm.struct<(ptr, ptr, i64, array<4 x i64>, array<4 x i64>)> 
    %46 = llvm.insertvalue %28, %45[4, 0] : !llvm.struct<(ptr, ptr, i64, array<4 x i64>, array<4 x i64>)> 
    %47 = llvm.insertvalue %27, %46[4, 1] : !llvm.struct<(ptr, ptr, i64, array<4 x i64>, array<4 x i64>)> 
    %48 = llvm.insertvalue %25, %47[4, 2] : !llvm.struct<(ptr, ptr, i64, array<4 x i64>, array<4 x i64>)> 
    %49 = llvm.insertvalue %26, %48[4, 3] : !llvm.struct<(ptr, ptr, i64, array<4 x i64>, array<4 x i64>)> 
    %50 = builtin.unrealized_conversion_cast %49 : !llvm.struct<(ptr, ptr, i64, array<4 x i64>, array<4 x i64>)> to memref<6x3x7x7xf32>
    cf.br ^bb1(%5 : index)
  ^bb1(%51: index):  // 2 preds: ^bb0, ^bb11
    %52 = builtin.unrealized_conversion_cast %51 : index to i64
    %53 = builtin.unrealized_conversion_cast %51 : index to i64
    %54 = llvm.icmp "slt" %53, %3 : i64
    cf.cond_br %54, ^bb2, ^bb12
  ^bb2:  // pred: ^bb1
    cf.br ^bb3(%5 : index)
  ^bb3(%55: index):  // 2 preds: ^bb2, ^bb10
    %56 = builtin.unrealized_conversion_cast %55 : index to i64
    %57 = builtin.unrealized_conversion_cast %55 : index to i64
    %58 = llvm.icmp "slt" %57, %2 : i64
    cf.cond_br %58, ^bb4, ^bb11
  ^bb4:  // pred: ^bb3
    cf.br ^bb5(%5 : index)
  ^bb5(%59: index):  // 2 preds: ^bb4, ^bb9
    %60 = builtin.unrealized_conversion_cast %59 : index to i64
    %61 = builtin.unrealized_conversion_cast %59 : index to i64
    %62 = llvm.icmp "slt" %61, %1 : i64
    cf.cond_br %62, ^bb6, ^bb10
  ^bb6:  // pred: ^bb5
    cf.br ^bb7(%5 : index)
  ^bb7(%63: index):  // 2 preds: ^bb6, ^bb8
    %64 = builtin.unrealized_conversion_cast %63 : index to i64
    %65 = builtin.unrealized_conversion_cast %63 : index to i64
    %66 = llvm.icmp "slt" %65, %1 : i64
    cf.cond_br %66, ^bb8, ^bb9
  ^bb8:  // pred: ^bb7
    %67 = llvm.getelementptr %12[%56] : (!llvm.ptr, i64) -> !llvm.ptr, f32
    %68 = llvm.load %67 : !llvm.ptr -> f32
    %69 = llvm.extractvalue %0[1] : !llvm.struct<(ptr, ptr, i64, array<4 x i64>, array<4 x i64>)> 
    %70 = llvm.mlir.constant(20184 : index) : i64
    %71 = llvm.mul %52, %70  : i64
    %72 = llvm.mlir.constant(3364 : index) : i64
    %73 = llvm.mul %56, %72  : i64
    %74 = llvm.add %71, %73  : i64
    %75 = llvm.mlir.constant(58 : index) : i64
    %76 = llvm.mul %60, %75  : i64
    %77 = llvm.add %74, %76  : i64
    %78 = llvm.add %77, %64  : i64
    %79 = llvm.getelementptr %69[%78] : (!llvm.ptr, i64) -> !llvm.ptr, f32
    llvm.store %68, %79 : f32, !llvm.ptr
    %80 = llvm.add %65, %3  : i64
    %81 = builtin.unrealized_conversion_cast %80 : i64 to index
    cf.br ^bb7(%81 : index)
  ^bb9:  // pred: ^bb7
    %82 = llvm.add %61, %3  : i64
    %83 = builtin.unrealized_conversion_cast %82 : i64 to index
    cf.br ^bb5(%83 : index)
  ^bb10:  // pred: ^bb5
    %84 = llvm.add %57, %3  : i64
    %85 = builtin.unrealized_conversion_cast %84 : i64 to index
    cf.br ^bb3(%85 : index)
  ^bb11:  // pred: ^bb3
    %86 = llvm.add %53, %3  : i64
    %87 = builtin.unrealized_conversion_cast %86 : i64 to index
    cf.br ^bb1(%87 : index)
  ^bb12:  // pred: ^bb1
    call @conv2d_kernel_0(%arg0, %50, %arg1) : (memref<1x3x64x64xf32>, memref<6x3x7x7xf32>, memref<1x6x58x58xf32>) -> ()
    return
  }
  func.func private @conv2d_kernel_0(memref<1x3x64x64xf32>, memref<6x3x7x7xf32>, memref<1x6x58x58xf32>)
}


// -----// IR Dump After FinalizeMemRefToLLVMConversionPass (finalize-memref-to-llvm) //----- //
module attributes {torch.debug_module_name = "Conv2d"} {
  llvm.mlir.global private constant @__constant_6x3x7x7xf32(dense<"…"> : tensor<6x3x7x7xf32>) {addr_space = 0 : i32} : !llvm.array<6 x array<3 x array<7 x array<7 x f32>>>>
  llvm.mlir.global private constant @__constant_6xf32(dense<[-0.0675533265, -0.0786442235, -7.646190e-02, -0.00229380699, -0.0799340755, -0.0737717897]> : tensor<6xf32>) {addr_space = 0 : i32} : !llvm.array<6 x f32>
  func.func @conv2d(%arg0: memref<1x3x64x64xf32>, %arg1: memref<1x6x58x58xf32>) {
    %0 = builtin.unrealized_conversion_cast %arg1 : memref<1x6x58x58xf32> to !llvm.struct<(ptr, ptr, i64, array<4 x i64>, array<4 x i64>)>
    %1 = llvm.mlir.constant(58 : index) : i64
    %2 = llvm.mlir.constant(6 : index) : i64
    %3 = llvm.mlir.constant(1 : index) : i64
    %4 = llvm.mlir.constant(0 : index) : i64
    %5 = builtin.unrealized_conversion_cast %4 : i64 to index
    %6 = llvm.mlir.constant(6 : index) : i64
    %7 = llvm.mlir.constant(1 : index) : i64
    %8 = llvm.mlir.zero : !llvm.ptr
    %9 = llvm.getelementptr %8[6] : (!llvm.ptr) -> !llvm.ptr, f32
    %10 = llvm.ptrtoint %9 : !llvm.ptr to i64
    %11 = llvm.mlir.addressof @__constant_6xf32 : !llvm.ptr
    %12 = llvm.getelementptr %11[0, 0] : (!llvm.ptr) -> !llvm.ptr, !llvm.array<6 x f32>
    %13 = llvm.mlir.constant(3735928559 : index) : i64
    %14 = llvm.inttoptr %13 : i64 to !llvm.ptr
    %15 = llvm.mlir.undef : !llvm.struct<(ptr, ptr, i64, array<1 x i64>, array<1 x i64>)>
    %16 = llvm.insertvalue %14, %15[0] : !llvm.struct<(ptr, ptr, i64, array<1 x i64>, array<1 x i64>)> 
    %17 = llvm.insertvalue %12, %16[1] : !llvm.struct<(ptr, ptr, i64, array<1 x i64>, array<1 x i64>)> 
    %18 = llvm.mlir.constant(0 : index) : i64
    %19 = llvm.insertvalue %18, %17[2] : !llvm.struct<(ptr, ptr, i64, array<1 x i64>, array<1 x i64>)> 
    %20 = llvm.insertvalue %6, %19[3, 0] : !llvm.struct<(ptr, ptr, i64, array<1 x i64>, array<1 x i64>)> 
    %21 = llvm.insertvalue %7, %20[4, 0] : !llvm.struct<(ptr, ptr, i64, array<1 x i64>, array<1 x i64>)> 
    %22 = llvm.mlir.constant(6 : index) : i64
    %23 = llvm.mlir.constant(3 : index) : i64
    %24 = llvm.mlir.constant(7 : index) : i64
    %25 = llvm.mlir.constant(7 : index) : i64
    %26 = llvm.mlir.constant(1 : index) : i64
    %27 = llvm.mlir.constant(49 : index) : i64
    %28 = llvm.mlir.constant(147 : index) : i64
    %29 = llvm.mlir.constant(882 : index) : i64
    %30 = llvm.mlir.zero : !llvm.ptr
    %31 = llvm.getelementptr %30[882] : (!llvm.ptr) -> !llvm.ptr, f32
    %32 = llvm.ptrtoint %31 : !llvm.ptr to i64
    %33 = llvm.mlir.addressof @__constant_6x3x7x7xf32 : !llvm.ptr
    %34 = llvm.getelementptr %33[0, 0, 0, 0, 0] : (!llvm.ptr) -> !llvm.ptr, !llvm.array<6 x array<3 x array<7 x array<7 x f32>>>>
    %35 = llvm.mlir.constant(3735928559 : index) : i64
    %36 = llvm.inttoptr %35 : i64 to !llvm.ptr
    %37 = llvm.mlir.undef : !llvm.struct<(ptr, ptr, i64, array<4 x i64>, array<4 x i64>)>
    %38 = llvm.insertvalue %36, %37[0] : !llvm.struct<(ptr, ptr, i64, array<4 x i64>, array<4 x i64>)> 
    %39 = llvm.insertvalue %34, %38[1] : !llvm.struct<(ptr, ptr, i64, array<4 x i64>, array<4 x i64>)> 
    %40 = llvm.mlir.constant(0 : index) : i64
    %41 = llvm.insertvalue %40, %39[2] : !llvm.struct<(ptr, ptr, i64, array<4 x i64>, array<4 x i64>)> 
    %42 = llvm.insertvalue %22, %41[3, 0] : !llvm.struct<(ptr, ptr, i64, array<4 x i64>, array<4 x i64>)> 
    %43 = llvm.insertvalue %23, %42[3, 1] : !llvm.struct<(ptr, ptr, i64, array<4 x i64>, array<4 x i64>)> 
    %44 = llvm.insertvalue %24, %43[3, 2] : !llvm.struct<(ptr, ptr, i64, array<4 x i64>, array<4 x i64>)> 
    %45 = llvm.insertvalue %25, %44[3, 3] : !llvm.struct<(ptr, ptr, i64, array<4 x i64>, array<4 x i64>)> 
    %46 = llvm.insertvalue %28, %45[4, 0] : !llvm.struct<(ptr, ptr, i64, array<4 x i64>, array<4 x i64>)> 
    %47 = llvm.insertvalue %27, %46[4, 1] : !llvm.struct<(ptr, ptr, i64, array<4 x i64>, array<4 x i64>)> 
    %48 = llvm.insertvalue %25, %47[4, 2] : !llvm.struct<(ptr, ptr, i64, array<4 x i64>, array<4 x i64>)> 
    %49 = llvm.insertvalue %26, %48[4, 3] : !llvm.struct<(ptr, ptr, i64, array<4 x i64>, array<4 x i64>)> 
    %50 = builtin.unrealized_conversion_cast %49 : !llvm.struct<(ptr, ptr, i64, array<4 x i64>, array<4 x i64>)> to memref<6x3x7x7xf32>
    cf.br ^bb1(%5 : index)
  ^bb1(%51: index):  // 2 preds: ^bb0, ^bb11
    %52 = builtin.unrealized_conversion_cast %51 : index to i64
    %53 = builtin.unrealized_conversion_cast %51 : index to i64
    %54 = llvm.icmp "slt" %53, %3 : i64
    cf.cond_br %54, ^bb2, ^bb12
  ^bb2:  // pred: ^bb1
    cf.br ^bb3(%5 : index)
  ^bb3(%55: index):  // 2 preds: ^bb2, ^bb10
    %56 = builtin.unrealized_conversion_cast %55 : index to i64
    %57 = builtin.unrealized_conversion_cast %55 : index to i64
    %58 = llvm.icmp "slt" %57, %2 : i64
    cf.cond_br %58, ^bb4, ^bb11
  ^bb4:  // pred: ^bb3
    cf.br ^bb5(%5 : index)
  ^bb5(%59: index):  // 2 preds: ^bb4, ^bb9
    %60 = builtin.unrealized_conversion_cast %59 : index to i64
    %61 = builtin.unrealized_conversion_cast %59 : index to i64
    %62 = llvm.icmp "slt" %61, %1 : i64
    cf.cond_br %62, ^bb6, ^bb10
  ^bb6:  // pred: ^bb5
    cf.br ^bb7(%5 : index)
  ^bb7(%63: index):  // 2 preds: ^bb6, ^bb8
    %64 = builtin.unrealized_conversion_cast %63 : index to i64
    %65 = builtin.unrealized_conversion_cast %63 : index to i64
    %66 = llvm.icmp "slt" %65, %1 : i64
    cf.cond_br %66, ^bb8, ^bb9
  ^bb8:  // pred: ^bb7
    %67 = llvm.getelementptr %12[%56] : (!llvm.ptr, i64) -> !llvm.ptr, f32
    %68 = llvm.load %67 : !llvm.ptr -> f32
    %69 = llvm.extractvalue %0[1] : !llvm.struct<(ptr, ptr, i64, array<4 x i64>, array<4 x i64>)> 
    %70 = llvm.mlir.constant(20184 : index) : i64
    %71 = llvm.mul %52, %70  : i64
    %72 = llvm.mlir.constant(3364 : index) : i64
    %73 = llvm.mul %56, %72  : i64
    %74 = llvm.add %71, %73  : i64
    %75 = llvm.mlir.constant(58 : index) : i64
    %76 = llvm.mul %60, %75  : i64
    %77 = llvm.add %74, %76  : i64
    %78 = llvm.add %77, %64  : i64
    %79 = llvm.getelementptr %69[%78] : (!llvm.ptr, i64) -> !llvm.ptr, f32
    llvm.store %68, %79 : f32, !llvm.ptr
    %80 = llvm.add %65, %3  : i64
    %81 = builtin.unrealized_conversion_cast %80 : i64 to index
    cf.br ^bb7(%81 : index)
  ^bb9:  // pred: ^bb7
    %82 = llvm.add %61, %3  : i64
    %83 = builtin.unrealized_conversion_cast %82 : i64 to index
    cf.br ^bb5(%83 : index)
  ^bb10:  // pred: ^bb5
    %84 = llvm.add %57, %3  : i64
    %85 = builtin.unrealized_conversion_cast %84 : i64 to index
    cf.br ^bb3(%85 : index)
  ^bb11:  // pred: ^bb3
    %86 = llvm.add %53, %3  : i64
    %87 = builtin.unrealized_conversion_cast %86 : i64 to index
    cf.br ^bb1(%87 : index)
  ^bb12:  // pred: ^bb1
    call @conv2d_kernel_0(%arg0, %50, %arg1) : (memref<1x3x64x64xf32>, memref<6x3x7x7xf32>, memref<1x6x58x58xf32>) -> ()
    return
  }
  func.func private @conv2d_kernel_0(memref<1x3x64x64xf32>, memref<6x3x7x7xf32>, memref<1x6x58x58xf32>)
}


// -----// IR Dump After ConvertFuncToLLVMPass (convert-func-to-llvm) //----- //
module attributes {torch.debug_module_name = "Conv2d"} {
  llvm.mlir.global private constant @__constant_6x3x7x7xf32(dense<"…"> : tensor<6x3x7x7xf32>) {addr_space = 0 : i32} : !llvm.array<6 x array<3 x array<7 x array<7 x f32>>>>
  llvm.mlir.global private constant @__constant_6xf32(dense<[-0.0675533265, -0.0786442235, -7.646190e-02, -0.00229380699, -0.0799340755, -0.0737717897]> : tensor<6xf32>) {addr_space = 0 : i32} : !llvm.array<6 x f32>
  llvm.func @conv2d(%arg0: !llvm.ptr, %arg1: !llvm.ptr) {
    %0 = llvm.mlir.undef : !llvm.struct<(ptr, ptr, i64, array<4 x i64>, array<4 x i64>)>
    %1 = llvm.insertvalue %arg0, %0[0] : !llvm.struct<(ptr, ptr, i64, array<4 x i64>, array<4 x i64>)> 
    %2 = llvm.insertvalue %arg0, %1[1] : !llvm.struct<(ptr, ptr, i64, array<4 x i64>, array<4 x i64>)> 
    %3 = llvm.mlir.constant(0 : index) : i64
    %4 = llvm.insertvalue %3, %2[2] : !llvm.struct<(ptr, ptr, i64, array<4 x i64>, array<4 x i64>)> 
    %5 = llvm.mlir.constant(1 : index) : i64
    %6 = llvm.insertvalue %5, %4[3, 0] : !llvm.struct<(ptr, ptr, i64, array<4 x i64>, array<4 x i64>)> 
    %7 = llvm.mlir.constant(12288 : index) : i64
    %8 = llvm.insertvalue %7, %6[4, 0] : !llvm.struct<(ptr, ptr, i64, array<4 x i64>, array<4 x i64>)> 
    %9 = llvm.mlir.constant(3 : index) : i64
    %10 = llvm.insertvalue %9, %8[3, 1] : !llvm.struct<(ptr, ptr, i64, array<4 x i64>, array<4 x i64>)> 
    %11 = llvm.mlir.constant(4096 : index) : i64
    %12 = llvm.insertvalue %11, %10[4, 1] : !llvm.struct<(ptr, ptr, i64, array<4 x i64>, array<4 x i64>)> 
    %13 = llvm.mlir.constant(64 : index) : i64
    %14 = llvm.insertvalue %13, %12[3, 2] : !llvm.struct<(ptr, ptr, i64, array<4 x i64>, array<4 x i64>)> 
    %15 = llvm.mlir.constant(64 : index) : i64
    %16 = llvm.insertvalue %15, %14[4, 2] : !llvm.struct<(ptr, ptr, i64, array<4 x i64>, array<4 x i64>)> 
    %17 = llvm.mlir.constant(64 : index) : i64
    %18 = llvm.insertvalue %17, %16[3, 3] : !llvm.struct<(ptr, ptr, i64, array<4 x i64>, array<4 x i64>)> 
    %19 = llvm.mlir.constant(1 : index) : i64
    %20 = llvm.insertvalue %19, %18[4, 3] : !llvm.struct<(ptr, ptr, i64, array<4 x i64>, array<4 x i64>)> 
    %21 = llvm.mlir.undef : !llvm.struct<(ptr, ptr, i64, array<4 x i64>, array<4 x i64>)>
    %22 = llvm.insertvalue %arg1, %21[0] : !llvm.struct<(ptr, ptr, i64, array<4 x i64>, array<4 x i64>)> 
    %23 = llvm.insertvalue %arg1, %22[1] : !llvm.struct<(ptr, ptr, i64, array<4 x i64>, array<4 x i64>)> 
    %24 = llvm.mlir.constant(0 : index) : i64
    %25 = llvm.insertvalue %24, %23[2] : !llvm.struct<(ptr, ptr, i64, array<4 x i64>, array<4 x i64>)> 
    %26 = llvm.mlir.constant(1 : index) : i64
    %27 = llvm.insertvalue %26, %25[3, 0] : !llvm.struct<(ptr, ptr, i64, array<4 x i64>, array<4 x i64>)> 
    %28 = llvm.mlir.constant(20184 : index) : i64
    %29 = llvm.insertvalue %28, %27[4, 0] : !llvm.struct<(ptr, ptr, i64, array<4 x i64>, array<4 x i64>)> 
    %30 = llvm.mlir.constant(6 : index) : i64
    %31 = llvm.insertvalue %30, %29[3, 1] : !llvm.struct<(ptr, ptr, i64, array<4 x i64>, array<4 x i64>)> 
    %32 = llvm.mlir.constant(3364 : index) : i64
    %33 = llvm.insertvalue %32, %31[4, 1] : !llvm.struct<(ptr, ptr, i64, array<4 x i64>, array<4 x i64>)> 
    %34 = llvm.mlir.constant(58 : index) : i64
    %35 = llvm.insertvalue %34, %33[3, 2] : !llvm.struct<(ptr, ptr, i64, array<4 x i64>, array<4 x i64>)> 
    %36 = llvm.mlir.constant(58 : index) : i64
    %37 = llvm.insertvalue %36, %35[4, 2] : !llvm.struct<(ptr, ptr, i64, array<4 x i64>, array<4 x i64>)> 
    %38 = llvm.mlir.constant(58 : index) : i64
    %39 = llvm.insertvalue %38, %37[3, 3] : !llvm.struct<(ptr, ptr, i64, array<4 x i64>, array<4 x i64>)> 
    %40 = llvm.mlir.constant(1 : index) : i64
    %41 = llvm.insertvalue %40, %39[4, 3] : !llvm.struct<(ptr, ptr, i64, array<4 x i64>, array<4 x i64>)> 
    %42 = builtin.unrealized_conversion_cast %41 : !llvm.struct<(ptr, ptr, i64, array<4 x i64>, array<4 x i64>)> to memref<1x6x58x58xf32>
    %43 = builtin.unrealized_conversion_cast %42 : memref<1x6x58x58xf32> to !llvm.struct<(ptr, ptr, i64, array<4 x i64>, array<4 x i64>)>
    %44 = llvm.mlir.constant(58 : index) : i64
    %45 = llvm.mlir.constant(6 : index) : i64
    %46 = llvm.mlir.constant(1 : index) : i64
    %47 = llvm.mlir.constant(0 : index) : i64
    %48 = builtin.unrealized_conversion_cast %47 : i64 to index
    %49 = llvm.mlir.constant(6 : index) : i64
    %50 = llvm.mlir.constant(1 : index) : i64
    %51 = llvm.mlir.zero : !llvm.ptr
    %52 = llvm.getelementptr %51[6] : (!llvm.ptr) -> !llvm.ptr, f32
    %53 = llvm.ptrtoint %52 : !llvm.ptr to i64
    %54 = llvm.mlir.addressof @__constant_6xf32 : !llvm.ptr
    %55 = llvm.getelementptr %54[0, 0] : (!llvm.ptr) -> !llvm.ptr, !llvm.array<6 x f32>
    %56 = llvm.mlir.constant(3735928559 : index) : i64
    %57 = llvm.inttoptr %56 : i64 to !llvm.ptr
    %58 = llvm.mlir.undef : !llvm.struct<(ptr, ptr, i64, array<1 x i64>, array<1 x i64>)>
    %59 = llvm.insertvalue %57, %58[0] : !llvm.struct<(ptr, ptr, i64, array<1 x i64>, array<1 x i64>)> 
    %60 = llvm.insertvalue %55, %59[1] : !llvm.struct<(ptr, ptr, i64, array<1 x i64>, array<1 x i64>)> 
    %61 = llvm.mlir.constant(0 : index) : i64
    %62 = llvm.insertvalue %61, %60[2] : !llvm.struct<(ptr, ptr, i64, array<1 x i64>, array<1 x i64>)> 
    %63 = llvm.insertvalue %49, %62[3, 0] : !llvm.struct<(ptr, ptr, i64, array<1 x i64>, array<1 x i64>)> 
    %64 = llvm.insertvalue %50, %63[4, 0] : !llvm.struct<(ptr, ptr, i64, array<1 x i64>, array<1 x i64>)> 
    %65 = llvm.mlir.constant(6 : index) : i64
    %66 = llvm.mlir.constant(3 : index) : i64
    %67 = llvm.mlir.constant(7 : index) : i64
    %68 = llvm.mlir.constant(7 : index) : i64
    %69 = llvm.mlir.constant(1 : index) : i64
    %70 = llvm.mlir.constant(49 : index) : i64
    %71 = llvm.mlir.constant(147 : index) : i64
    %72 = llvm.mlir.constant(882 : index) : i64
    %73 = llvm.mlir.zero : !llvm.ptr
    %74 = llvm.getelementptr %73[882] : (!llvm.ptr) -> !llvm.ptr, f32
    %75 = llvm.ptrtoint %74 : !llvm.ptr to i64
    %76 = llvm.mlir.addressof @__constant_6x3x7x7xf32 : !llvm.ptr
    %77 = llvm.getelementptr %76[0, 0, 0, 0, 0] : (!llvm.ptr) -> !llvm.ptr, !llvm.array<6 x array<3 x array<7 x array<7 x f32>>>>
    %78 = llvm.mlir.constant(3735928559 : index) : i64
    %79 = llvm.inttoptr %78 : i64 to !llvm.ptr
    %80 = llvm.mlir.undef : !llvm.struct<(ptr, ptr, i64, array<4 x i64>, array<4 x i64>)>
    %81 = llvm.insertvalue %79, %80[0] : !llvm.struct<(ptr, ptr, i64, array<4 x i64>, array<4 x i64>)> 
    %82 = llvm.insertvalue %77, %81[1] : !llvm.struct<(ptr, ptr, i64, array<4 x i64>, array<4 x i64>)> 
    %83 = llvm.mlir.constant(0 : index) : i64
    %84 = llvm.insertvalue %83, %82[2] : !llvm.struct<(ptr, ptr, i64, array<4 x i64>, array<4 x i64>)> 
    %85 = llvm.insertvalue %65, %84[3, 0] : !llvm.struct<(ptr, ptr, i64, array<4 x i64>, array<4 x i64>)> 
    %86 = llvm.insertvalue %66, %85[3, 1] : !llvm.struct<(ptr, ptr, i64, array<4 x i64>, array<4 x i64>)> 
    %87 = llvm.insertvalue %67, %86[3, 2] : !llvm.struct<(ptr, ptr, i64, array<4 x i64>, array<4 x i64>)> 
    %88 = llvm.insertvalue %68, %87[3, 3] : !llvm.struct<(ptr, ptr, i64, array<4 x i64>, array<4 x i64>)> 
    %89 = llvm.insertvalue %71, %88[4, 0] : !llvm.struct<(ptr, ptr, i64, array<4 x i64>, array<4 x i64>)> 
    %90 = llvm.insertvalue %70, %89[4, 1] : !llvm.struct<(ptr, ptr, i64, array<4 x i64>, array<4 x i64>)> 
    %91 = llvm.insertvalue %68, %90[4, 2] : !llvm.struct<(ptr, ptr, i64, array<4 x i64>, array<4 x i64>)> 
    %92 = llvm.insertvalue %69, %91[4, 3] : !llvm.struct<(ptr, ptr, i64, array<4 x i64>, array<4 x i64>)> 
    %93 = builtin.unrealized_conversion_cast %92 : !llvm.struct<(ptr, ptr, i64, array<4 x i64>, array<4 x i64>)> to memref<6x3x7x7xf32>
    llvm.br ^bb1(%47 : i64)
  ^bb1(%94: i64):  // 2 preds: ^bb0, ^bb11
    %95 = builtin.unrealized_conversion_cast %94 : i64 to index
    %96 = builtin.unrealized_conversion_cast %95 : index to i64
    %97 = builtin.unrealized_conversion_cast %95 : index to i64
    %98 = llvm.icmp "slt" %97, %46 : i64
    llvm.cond_br %98, ^bb2, ^bb12
  ^bb2:  // pred: ^bb1
    llvm.br ^bb3(%47 : i64)
  ^bb3(%99: i64):  // 2 preds: ^bb2, ^bb10
    %100 = builtin.unrealized_conversion_cast %99 : i64 to index
    %101 = builtin.unrealized_conversion_cast %100 : index to i64
    %102 = builtin.unrealized_conversion_cast %100 : index to i64
    %103 = llvm.icmp "slt" %102, %45 : i64
    llvm.cond_br %103, ^bb4, ^bb11
  ^bb4:  // pred: ^bb3
    llvm.br ^bb5(%47 : i64)
  ^bb5(%104: i64):  // 2 preds: ^bb4, ^bb9
    %105 = builtin.unrealized_conversion_cast %104 : i64 to index
    %106 = builtin.unrealized_conversion_cast %105 : index to i64
    %107 = builtin.unrealized_conversion_cast %105 : index to i64
    %108 = llvm.icmp "slt" %107, %44 : i64
    llvm.cond_br %108, ^bb6, ^bb10
  ^bb6:  // pred: ^bb5
    llvm.br ^bb7(%47 : i64)
  ^bb7(%109: i64):  // 2 preds: ^bb6, ^bb8
    %110 = builtin.unrealized_conversion_cast %109 : i64 to index
    %111 = builtin.unrealized_conversion_cast %110 : index to i64
    %112 = builtin.unrealized_conversion_cast %110 : index to i64
    %113 = llvm.icmp "slt" %112, %44 : i64
    llvm.cond_br %113, ^bb8, ^bb9
  ^bb8:  // pred: ^bb7
    %114 = llvm.getelementptr %55[%101] : (!llvm.ptr, i64) -> !llvm.ptr, f32
    %115 = llvm.load %114 : !llvm.ptr -> f32
    %116 = llvm.extractvalue %43[1] : !llvm.struct<(ptr, ptr, i64, array<4 x i64>, array<4 x i64>)> 
    %117 = llvm.mlir.constant(20184 : index) : i64
    %118 = llvm.mul %96, %117  : i64
    %119 = llvm.mlir.constant(3364 : index) : i64
    %120 = llvm.mul %101, %119  : i64
    %121 = llvm.add %118, %120  : i64
    %122 = llvm.mlir.constant(58 : index) : i64
    %123 = llvm.mul %106, %122  : i64
    %124 = llvm.add %121, %123  : i64
    %125 = llvm.add %124, %111  : i64
    %126 = llvm.getelementptr %116[%125] : (!llvm.ptr, i64) -> !llvm.ptr, f32
    llvm.store %115, %126 : f32, !llvm.ptr
    %127 = llvm.add %112, %46  : i64
    %128 = builtin.unrealized_conversion_cast %127 : i64 to index
    llvm.br ^bb7(%127 : i64)
  ^bb9:  // pred: ^bb7
    %129 = llvm.add %107, %46  : i64
    %130 = builtin.unrealized_conversion_cast %129 : i64 to index
    llvm.br ^bb5(%129 : i64)
  ^bb10:  // pred: ^bb5
    %131 = llvm.add %102, %46  : i64
    %132 = builtin.unrealized_conversion_cast %131 : i64 to index
    llvm.br ^bb3(%131 : i64)
  ^bb11:  // pred: ^bb3
    %133 = llvm.add %97, %46  : i64
    %134 = builtin.unrealized_conversion_cast %133 : i64 to index
    llvm.br ^bb1(%133 : i64)
  ^bb12:  // pred: ^bb1
    %135 = llvm.extractvalue %20[1] : !llvm.struct<(ptr, ptr, i64, array<4 x i64>, array<4 x i64>)> 
    %136 = llvm.extractvalue %92[1] : !llvm.struct<(ptr, ptr, i64, array<4 x i64>, array<4 x i64>)> 
    %137 = llvm.extractvalue %41[1] : !llvm.struct<(ptr, ptr, i64, array<4 x i64>, array<4 x i64>)> 
    llvm.call @conv2d_kernel_0(%135, %136, %137) : (!llvm.ptr, !llvm.ptr, !llvm.ptr) -> ()
    llvm.return
  }
  llvm.func @conv2d_kernel_0(!llvm.ptr, !llvm.ptr, !llvm.ptr) attributes {sym_visibility = "private"}
}


// -----// IR Dump After ConvertFuncToLLVMPass (convert-func-to-llvm) //----- //
module attributes {torch.debug_module_name = "Conv2d"} {
  llvm.mlir.global private constant @__constant_6x3x7x7xf32(dense<"…"> : tensor<6x3x7x7xf32>) {addr_space = 0 : i32} : !llvm.array<6 x array<3 x array<7 x array<7 x f32>>>>
  llvm.mlir.global private constant @__constant_6xf32(dense<[-0.0675533265, -0.0786442235, -7.646190e-02, -0.00229380699, -0.0799340755, -0.0737717897]> : tensor<6xf32>) {addr_space = 0 : i32} : !llvm.array<6 x f32>
  llvm.func @conv2d(%arg0: !llvm.ptr, %arg1: !llvm.ptr) {
    %0 = llvm.mlir.undef : !llvm.struct<(ptr, ptr, i64, array<4 x i64>, array<4 x i64>)>
    %1 = llvm.insertvalue %arg0, %0[0] : !llvm.struct<(ptr, ptr, i64, array<4 x i64>, array<4 x i64>)> 
    %2 = llvm.insertvalue %arg0, %1[1] : !llvm.struct<(ptr, ptr, i64, array<4 x i64>, array<4 x i64>)> 
    %3 = llvm.mlir.constant(0 : index) : i64
    %4 = llvm.insertvalue %3, %2[2] : !llvm.struct<(ptr, ptr, i64, array<4 x i64>, array<4 x i64>)> 
    %5 = llvm.mlir.constant(1 : index) : i64
    %6 = llvm.insertvalue %5, %4[3, 0] : !llvm.struct<(ptr, ptr, i64, array<4 x i64>, array<4 x i64>)> 
    %7 = llvm.mlir.constant(12288 : index) : i64
    %8 = llvm.insertvalue %7, %6[4, 0] : !llvm.struct<(ptr, ptr, i64, array<4 x i64>, array<4 x i64>)> 
    %9 = llvm.mlir.constant(3 : index) : i64
    %10 = llvm.insertvalue %9, %8[3, 1] : !llvm.struct<(ptr, ptr, i64, array<4 x i64>, array<4 x i64>)> 
    %11 = llvm.mlir.constant(4096 : index) : i64
    %12 = llvm.insertvalue %11, %10[4, 1] : !llvm.struct<(ptr, ptr, i64, array<4 x i64>, array<4 x i64>)> 
    %13 = llvm.mlir.constant(64 : index) : i64
    %14 = llvm.insertvalue %13, %12[3, 2] : !llvm.struct<(ptr, ptr, i64, array<4 x i64>, array<4 x i64>)> 
    %15 = llvm.mlir.constant(64 : index) : i64
    %16 = llvm.insertvalue %15, %14[4, 2] : !llvm.struct<(ptr, ptr, i64, array<4 x i64>, array<4 x i64>)> 
    %17 = llvm.mlir.constant(64 : index) : i64
    %18 = llvm.insertvalue %17, %16[3, 3] : !llvm.struct<(ptr, ptr, i64, array<4 x i64>, array<4 x i64>)> 
    %19 = llvm.mlir.constant(1 : index) : i64
    %20 = llvm.insertvalue %19, %18[4, 3] : !llvm.struct<(ptr, ptr, i64, array<4 x i64>, array<4 x i64>)> 
    %21 = llvm.mlir.undef : !llvm.struct<(ptr, ptr, i64, array<4 x i64>, array<4 x i64>)>
    %22 = llvm.insertvalue %arg1, %21[0] : !llvm.struct<(ptr, ptr, i64, array<4 x i64>, array<4 x i64>)> 
    %23 = llvm.insertvalue %arg1, %22[1] : !llvm.struct<(ptr, ptr, i64, array<4 x i64>, array<4 x i64>)> 
    %24 = llvm.mlir.constant(0 : index) : i64
    %25 = llvm.insertvalue %24, %23[2] : !llvm.struct<(ptr, ptr, i64, array<4 x i64>, array<4 x i64>)> 
    %26 = llvm.mlir.constant(1 : index) : i64
    %27 = llvm.insertvalue %26, %25[3, 0] : !llvm.struct<(ptr, ptr, i64, array<4 x i64>, array<4 x i64>)> 
    %28 = llvm.mlir.constant(20184 : index) : i64
    %29 = llvm.insertvalue %28, %27[4, 0] : !llvm.struct<(ptr, ptr, i64, array<4 x i64>, array<4 x i64>)> 
    %30 = llvm.mlir.constant(6 : index) : i64
    %31 = llvm.insertvalue %30, %29[3, 1] : !llvm.struct<(ptr, ptr, i64, array<4 x i64>, array<4 x i64>)> 
    %32 = llvm.mlir.constant(3364 : index) : i64
    %33 = llvm.insertvalue %32, %31[4, 1] : !llvm.struct<(ptr, ptr, i64, array<4 x i64>, array<4 x i64>)> 
    %34 = llvm.mlir.constant(58 : index) : i64
    %35 = llvm.insertvalue %34, %33[3, 2] : !llvm.struct<(ptr, ptr, i64, array<4 x i64>, array<4 x i64>)> 
    %36 = llvm.mlir.constant(58 : index) : i64
    %37 = llvm.insertvalue %36, %35[4, 2] : !llvm.struct<(ptr, ptr, i64, array<4 x i64>, array<4 x i64>)> 
    %38 = llvm.mlir.constant(58 : index) : i64
    %39 = llvm.insertvalue %38, %37[3, 3] : !llvm.struct<(ptr, ptr, i64, array<4 x i64>, array<4 x i64>)> 
    %40 = llvm.mlir.constant(1 : index) : i64
    %41 = llvm.insertvalue %40, %39[4, 3] : !llvm.struct<(ptr, ptr, i64, array<4 x i64>, array<4 x i64>)> 
    %42 = builtin.unrealized_conversion_cast %41 : !llvm.struct<(ptr, ptr, i64, array<4 x i64>, array<4 x i64>)> to memref<1x6x58x58xf32>
    %43 = builtin.unrealized_conversion_cast %42 : memref<1x6x58x58xf32> to !llvm.struct<(ptr, ptr, i64, array<4 x i64>, array<4 x i64>)>
    %44 = llvm.mlir.constant(58 : index) : i64
    %45 = llvm.mlir.constant(6 : index) : i64
    %46 = llvm.mlir.constant(1 : index) : i64
    %47 = llvm.mlir.constant(0 : index) : i64
    %48 = builtin.unrealized_conversion_cast %47 : i64 to index
    %49 = llvm.mlir.constant(6 : index) : i64
    %50 = llvm.mlir.constant(1 : index) : i64
    %51 = llvm.mlir.zero : !llvm.ptr
    %52 = llvm.getelementptr %51[6] : (!llvm.ptr) -> !llvm.ptr, f32
    %53 = llvm.ptrtoint %52 : !llvm.ptr to i64
    %54 = llvm.mlir.addressof @__constant_6xf32 : !llvm.ptr
    %55 = llvm.getelementptr %54[0, 0] : (!llvm.ptr) -> !llvm.ptr, !llvm.array<6 x f32>
    %56 = llvm.mlir.constant(3735928559 : index) : i64
    %57 = llvm.inttoptr %56 : i64 to !llvm.ptr
    %58 = llvm.mlir.undef : !llvm.struct<(ptr, ptr, i64, array<1 x i64>, array<1 x i64>)>
    %59 = llvm.insertvalue %57, %58[0] : !llvm.struct<(ptr, ptr, i64, array<1 x i64>, array<1 x i64>)> 
    %60 = llvm.insertvalue %55, %59[1] : !llvm.struct<(ptr, ptr, i64, array<1 x i64>, array<1 x i64>)> 
    %61 = llvm.mlir.constant(0 : index) : i64
    %62 = llvm.insertvalue %61, %60[2] : !llvm.struct<(ptr, ptr, i64, array<1 x i64>, array<1 x i64>)> 
    %63 = llvm.insertvalue %49, %62[3, 0] : !llvm.struct<(ptr, ptr, i64, array<1 x i64>, array<1 x i64>)> 
    %64 = llvm.insertvalue %50, %63[4, 0] : !llvm.struct<(ptr, ptr, i64, array<1 x i64>, array<1 x i64>)> 
    %65 = llvm.mlir.constant(6 : index) : i64
    %66 = llvm.mlir.constant(3 : index) : i64
    %67 = llvm.mlir.constant(7 : index) : i64
    %68 = llvm.mlir.constant(7 : index) : i64
    %69 = llvm.mlir.constant(1 : index) : i64
    %70 = llvm.mlir.constant(49 : index) : i64
    %71 = llvm.mlir.constant(147 : index) : i64
    %72 = llvm.mlir.constant(882 : index) : i64
    %73 = llvm.mlir.zero : !llvm.ptr
    %74 = llvm.getelementptr %73[882] : (!llvm.ptr) -> !llvm.ptr, f32
    %75 = llvm.ptrtoint %74 : !llvm.ptr to i64
    %76 = llvm.mlir.addressof @__constant_6x3x7x7xf32 : !llvm.ptr
    %77 = llvm.getelementptr %76[0, 0, 0, 0, 0] : (!llvm.ptr) -> !llvm.ptr, !llvm.array<6 x array<3 x array<7 x array<7 x f32>>>>
    %78 = llvm.mlir.constant(3735928559 : index) : i64
    %79 = llvm.inttoptr %78 : i64 to !llvm.ptr
    %80 = llvm.mlir.undef : !llvm.struct<(ptr, ptr, i64, array<4 x i64>, array<4 x i64>)>
    %81 = llvm.insertvalue %79, %80[0] : !llvm.struct<(ptr, ptr, i64, array<4 x i64>, array<4 x i64>)> 
    %82 = llvm.insertvalue %77, %81[1] : !llvm.struct<(ptr, ptr, i64, array<4 x i64>, array<4 x i64>)> 
    %83 = llvm.mlir.constant(0 : index) : i64
    %84 = llvm.insertvalue %83, %82[2] : !llvm.struct<(ptr, ptr, i64, array<4 x i64>, array<4 x i64>)> 
    %85 = llvm.insertvalue %65, %84[3, 0] : !llvm.struct<(ptr, ptr, i64, array<4 x i64>, array<4 x i64>)> 
    %86 = llvm.insertvalue %66, %85[3, 1] : !llvm.struct<(ptr, ptr, i64, array<4 x i64>, array<4 x i64>)> 
    %87 = llvm.insertvalue %67, %86[3, 2] : !llvm.struct<(ptr, ptr, i64, array<4 x i64>, array<4 x i64>)> 
    %88 = llvm.insertvalue %68, %87[3, 3] : !llvm.struct<(ptr, ptr, i64, array<4 x i64>, array<4 x i64>)> 
    %89 = llvm.insertvalue %71, %88[4, 0] : !llvm.struct<(ptr, ptr, i64, array<4 x i64>, array<4 x i64>)> 
    %90 = llvm.insertvalue %70, %89[4, 1] : !llvm.struct<(ptr, ptr, i64, array<4 x i64>, array<4 x i64>)> 
    %91 = llvm.insertvalue %68, %90[4, 2] : !llvm.struct<(ptr, ptr, i64, array<4 x i64>, array<4 x i64>)> 
    %92 = llvm.insertvalue %69, %91[4, 3] : !llvm.struct<(ptr, ptr, i64, array<4 x i64>, array<4 x i64>)> 
    %93 = builtin.unrealized_conversion_cast %92 : !llvm.struct<(ptr, ptr, i64, array<4 x i64>, array<4 x i64>)> to memref<6x3x7x7xf32>
    llvm.br ^bb1(%47 : i64)
  ^bb1(%94: i64):  // 2 preds: ^bb0, ^bb11
    %95 = builtin.unrealized_conversion_cast %94 : i64 to index
    %96 = builtin.unrealized_conversion_cast %95 : index to i64
    %97 = builtin.unrealized_conversion_cast %95 : index to i64
    %98 = llvm.icmp "slt" %97, %46 : i64
    llvm.cond_br %98, ^bb2, ^bb12
  ^bb2:  // pred: ^bb1
    llvm.br ^bb3(%47 : i64)
  ^bb3(%99: i64):  // 2 preds: ^bb2, ^bb10
    %100 = builtin.unrealized_conversion_cast %99 : i64 to index
    %101 = builtin.unrealized_conversion_cast %100 : index to i64
    %102 = builtin.unrealized_conversion_cast %100 : index to i64
    %103 = llvm.icmp "slt" %102, %45 : i64
    llvm.cond_br %103, ^bb4, ^bb11
  ^bb4:  // pred: ^bb3
    llvm.br ^bb5(%47 : i64)
  ^bb5(%104: i64):  // 2 preds: ^bb4, ^bb9
    %105 = builtin.unrealized_conversion_cast %104 : i64 to index
    %106 = builtin.unrealized_conversion_cast %105 : index to i64
    %107 = builtin.unrealized_conversion_cast %105 : index to i64
    %108 = llvm.icmp "slt" %107, %44 : i64
    llvm.cond_br %108, ^bb6, ^bb10
  ^bb6:  // pred: ^bb5
    llvm.br ^bb7(%47 : i64)
  ^bb7(%109: i64):  // 2 preds: ^bb6, ^bb8
    %110 = builtin.unrealized_conversion_cast %109 : i64 to index
    %111 = builtin.unrealized_conversion_cast %110 : index to i64
    %112 = builtin.unrealized_conversion_cast %110 : index to i64
    %113 = llvm.icmp "slt" %112, %44 : i64
    llvm.cond_br %113, ^bb8, ^bb9
  ^bb8:  // pred: ^bb7
    %114 = llvm.getelementptr %55[%101] : (!llvm.ptr, i64) -> !llvm.ptr, f32
    %115 = llvm.load %114 : !llvm.ptr -> f32
    %116 = llvm.extractvalue %43[1] : !llvm.struct<(ptr, ptr, i64, array<4 x i64>, array<4 x i64>)> 
    %117 = llvm.mlir.constant(20184 : index) : i64
    %118 = llvm.mul %96, %117  : i64
    %119 = llvm.mlir.constant(3364 : index) : i64
    %120 = llvm.mul %101, %119  : i64
    %121 = llvm.add %118, %120  : i64
    %122 = llvm.mlir.constant(58 : index) : i64
    %123 = llvm.mul %106, %122  : i64
    %124 = llvm.add %121, %123  : i64
    %125 = llvm.add %124, %111  : i64
    %126 = llvm.getelementptr %116[%125] : (!llvm.ptr, i64) -> !llvm.ptr, f32
    llvm.store %115, %126 : f32, !llvm.ptr
    %127 = llvm.add %112, %46  : i64
    %128 = builtin.unrealized_conversion_cast %127 : i64 to index
    llvm.br ^bb7(%127 : i64)
  ^bb9:  // pred: ^bb7
    %129 = llvm.add %107, %46  : i64
    %130 = builtin.unrealized_conversion_cast %129 : i64 to index
    llvm.br ^bb5(%129 : i64)
  ^bb10:  // pred: ^bb5
    %131 = llvm.add %102, %46  : i64
    %132 = builtin.unrealized_conversion_cast %131 : i64 to index
    llvm.br ^bb3(%131 : i64)
  ^bb11:  // pred: ^bb3
    %133 = llvm.add %97, %46  : i64
    %134 = builtin.unrealized_conversion_cast %133 : i64 to index
    llvm.br ^bb1(%133 : i64)
  ^bb12:  // pred: ^bb1
    %135 = llvm.extractvalue %20[1] : !llvm.struct<(ptr, ptr, i64, array<4 x i64>, array<4 x i64>)> 
    %136 = llvm.extractvalue %92[1] : !llvm.struct<(ptr, ptr, i64, array<4 x i64>, array<4 x i64>)> 
    %137 = llvm.extractvalue %41[1] : !llvm.struct<(ptr, ptr, i64, array<4 x i64>, array<4 x i64>)> 
    llvm.call @conv2d_kernel_0(%135, %136, %137) : (!llvm.ptr, !llvm.ptr, !llvm.ptr) -> ()
    llvm.return
  }
  llvm.func @conv2d_kernel_0(!llvm.ptr, !llvm.ptr, !llvm.ptr) attributes {sym_visibility = "private"}
}


// -----// IR Dump After FinalizeMemRefToLLVMConversionPass (finalize-memref-to-llvm) //----- //
module attributes {torch.debug_module_name = "Conv2d"} {
  llvm.mlir.global private constant @__constant_6x3x7x7xf32(dense<"…"> : tensor<6x3x7x7xf32>) {addr_space = 0 : i32} : !llvm.array<6 x array<3 x array<7 x array<7 x f32>>>>
  llvm.mlir.global private constant @__constant_6xf32(dense<[-0.0675533265, -0.0786442235, -7.646190e-02, -0.00229380699, -0.0799340755, -0.0737717897]> : tensor<6xf32>) {addr_space = 0 : i32} : !llvm.array<6 x f32>
  llvm.func @conv2d(%arg0: !llvm.ptr, %arg1: !llvm.ptr) {
    %0 = llvm.mlir.undef : !llvm.struct<(ptr, ptr, i64, array<4 x i64>, array<4 x i64>)>
    %1 = llvm.insertvalue %arg0, %0[0] : !llvm.struct<(ptr, ptr, i64, array<4 x i64>, array<4 x i64>)> 
    %2 = llvm.insertvalue %arg0, %1[1] : !llvm.struct<(ptr, ptr, i64, array<4 x i64>, array<4 x i64>)> 
    %3 = llvm.mlir.constant(0 : index) : i64
    %4 = llvm.insertvalue %3, %2[2] : !llvm.struct<(ptr, ptr, i64, array<4 x i64>, array<4 x i64>)> 
    %5 = llvm.mlir.constant(1 : index) : i64
    %6 = llvm.insertvalue %5, %4[3, 0] : !llvm.struct<(ptr, ptr, i64, array<4 x i64>, array<4 x i64>)> 
    %7 = llvm.mlir.constant(12288 : index) : i64
    %8 = llvm.insertvalue %7, %6[4, 0] : !llvm.struct<(ptr, ptr, i64, array<4 x i64>, array<4 x i64>)> 
    %9 = llvm.mlir.constant(3 : index) : i64
    %10 = llvm.insertvalue %9, %8[3, 1] : !llvm.struct<(ptr, ptr, i64, array<4 x i64>, array<4 x i64>)> 
    %11 = llvm.mlir.constant(4096 : index) : i64
    %12 = llvm.insertvalue %11, %10[4, 1] : !llvm.struct<(ptr, ptr, i64, array<4 x i64>, array<4 x i64>)> 
    %13 = llvm.mlir.constant(64 : index) : i64
    %14 = llvm.insertvalue %13, %12[3, 2] : !llvm.struct<(ptr, ptr, i64, array<4 x i64>, array<4 x i64>)> 
    %15 = llvm.mlir.constant(64 : index) : i64
    %16 = llvm.insertvalue %15, %14[4, 2] : !llvm.struct<(ptr, ptr, i64, array<4 x i64>, array<4 x i64>)> 
    %17 = llvm.mlir.constant(64 : index) : i64
    %18 = llvm.insertvalue %17, %16[3, 3] : !llvm.struct<(ptr, ptr, i64, array<4 x i64>, array<4 x i64>)> 
    %19 = llvm.mlir.constant(1 : index) : i64
    %20 = llvm.insertvalue %19, %18[4, 3] : !llvm.struct<(ptr, ptr, i64, array<4 x i64>, array<4 x i64>)> 
    %21 = llvm.mlir.undef : !llvm.struct<(ptr, ptr, i64, array<4 x i64>, array<4 x i64>)>
    %22 = llvm.insertvalue %arg1, %21[0] : !llvm.struct<(ptr, ptr, i64, array<4 x i64>, array<4 x i64>)> 
    %23 = llvm.insertvalue %arg1, %22[1] : !llvm.struct<(ptr, ptr, i64, array<4 x i64>, array<4 x i64>)> 
    %24 = llvm.mlir.constant(0 : index) : i64
    %25 = llvm.insertvalue %24, %23[2] : !llvm.struct<(ptr, ptr, i64, array<4 x i64>, array<4 x i64>)> 
    %26 = llvm.mlir.constant(1 : index) : i64
    %27 = llvm.insertvalue %26, %25[3, 0] : !llvm.struct<(ptr, ptr, i64, array<4 x i64>, array<4 x i64>)> 
    %28 = llvm.mlir.constant(20184 : index) : i64
    %29 = llvm.insertvalue %28, %27[4, 0] : !llvm.struct<(ptr, ptr, i64, array<4 x i64>, array<4 x i64>)> 
    %30 = llvm.mlir.constant(6 : index) : i64
    %31 = llvm.insertvalue %30, %29[3, 1] : !llvm.struct<(ptr, ptr, i64, array<4 x i64>, array<4 x i64>)> 
    %32 = llvm.mlir.constant(3364 : index) : i64
    %33 = llvm.insertvalue %32, %31[4, 1] : !llvm.struct<(ptr, ptr, i64, array<4 x i64>, array<4 x i64>)> 
    %34 = llvm.mlir.constant(58 : index) : i64
    %35 = llvm.insertvalue %34, %33[3, 2] : !llvm.struct<(ptr, ptr, i64, array<4 x i64>, array<4 x i64>)> 
    %36 = llvm.mlir.constant(58 : index) : i64
    %37 = llvm.insertvalue %36, %35[4, 2] : !llvm.struct<(ptr, ptr, i64, array<4 x i64>, array<4 x i64>)> 
    %38 = llvm.mlir.constant(58 : index) : i64
    %39 = llvm.insertvalue %38, %37[3, 3] : !llvm.struct<(ptr, ptr, i64, array<4 x i64>, array<4 x i64>)> 
    %40 = llvm.mlir.constant(1 : index) : i64
    %41 = llvm.insertvalue %40, %39[4, 3] : !llvm.struct<(ptr, ptr, i64, array<4 x i64>, array<4 x i64>)> 
    %42 = builtin.unrealized_conversion_cast %41 : !llvm.struct<(ptr, ptr, i64, array<4 x i64>, array<4 x i64>)> to memref<1x6x58x58xf32>
    %43 = builtin.unrealized_conversion_cast %42 : memref<1x6x58x58xf32> to !llvm.struct<(ptr, ptr, i64, array<4 x i64>, array<4 x i64>)>
    %44 = llvm.mlir.constant(58 : index) : i64
    %45 = llvm.mlir.constant(6 : index) : i64
    %46 = llvm.mlir.constant(1 : index) : i64
    %47 = llvm.mlir.constant(0 : index) : i64
    %48 = builtin.unrealized_conversion_cast %47 : i64 to index
    %49 = llvm.mlir.constant(6 : index) : i64
    %50 = llvm.mlir.constant(1 : index) : i64
    %51 = llvm.mlir.zero : !llvm.ptr
    %52 = llvm.getelementptr %51[6] : (!llvm.ptr) -> !llvm.ptr, f32
    %53 = llvm.ptrtoint %52 : !llvm.ptr to i64
    %54 = llvm.mlir.addressof @__constant_6xf32 : !llvm.ptr
    %55 = llvm.getelementptr %54[0, 0] : (!llvm.ptr) -> !llvm.ptr, !llvm.array<6 x f32>
    %56 = llvm.mlir.constant(3735928559 : index) : i64
    %57 = llvm.inttoptr %56 : i64 to !llvm.ptr
    %58 = llvm.mlir.undef : !llvm.struct<(ptr, ptr, i64, array<1 x i64>, array<1 x i64>)>
    %59 = llvm.insertvalue %57, %58[0] : !llvm.struct<(ptr, ptr, i64, array<1 x i64>, array<1 x i64>)> 
    %60 = llvm.insertvalue %55, %59[1] : !llvm.struct<(ptr, ptr, i64, array<1 x i64>, array<1 x i64>)> 
    %61 = llvm.mlir.constant(0 : index) : i64
    %62 = llvm.insertvalue %61, %60[2] : !llvm.struct<(ptr, ptr, i64, array<1 x i64>, array<1 x i64>)> 
    %63 = llvm.insertvalue %49, %62[3, 0] : !llvm.struct<(ptr, ptr, i64, array<1 x i64>, array<1 x i64>)> 
    %64 = llvm.insertvalue %50, %63[4, 0] : !llvm.struct<(ptr, ptr, i64, array<1 x i64>, array<1 x i64>)> 
    %65 = llvm.mlir.constant(6 : index) : i64
    %66 = llvm.mlir.constant(3 : index) : i64
    %67 = llvm.mlir.constant(7 : index) : i64
    %68 = llvm.mlir.constant(7 : index) : i64
    %69 = llvm.mlir.constant(1 : index) : i64
    %70 = llvm.mlir.constant(49 : index) : i64
    %71 = llvm.mlir.constant(147 : index) : i64
    %72 = llvm.mlir.constant(882 : index) : i64
    %73 = llvm.mlir.zero : !llvm.ptr
    %74 = llvm.getelementptr %73[882] : (!llvm.ptr) -> !llvm.ptr, f32
    %75 = llvm.ptrtoint %74 : !llvm.ptr to i64
    %76 = llvm.mlir.addressof @__constant_6x3x7x7xf32 : !llvm.ptr
    %77 = llvm.getelementptr %76[0, 0, 0, 0, 0] : (!llvm.ptr) -> !llvm.ptr, !llvm.array<6 x array<3 x array<7 x array<7 x f32>>>>
    %78 = llvm.mlir.constant(3735928559 : index) : i64
    %79 = llvm.inttoptr %78 : i64 to !llvm.ptr
    %80 = llvm.mlir.undef : !llvm.struct<(ptr, ptr, i64, array<4 x i64>, array<4 x i64>)>
    %81 = llvm.insertvalue %79, %80[0] : !llvm.struct<(ptr, ptr, i64, array<4 x i64>, array<4 x i64>)> 
    %82 = llvm.insertvalue %77, %81[1] : !llvm.struct<(ptr, ptr, i64, array<4 x i64>, array<4 x i64>)> 
    %83 = llvm.mlir.constant(0 : index) : i64
    %84 = llvm.insertvalue %83, %82[2] : !llvm.struct<(ptr, ptr, i64, array<4 x i64>, array<4 x i64>)> 
    %85 = llvm.insertvalue %65, %84[3, 0] : !llvm.struct<(ptr, ptr, i64, array<4 x i64>, array<4 x i64>)> 
    %86 = llvm.insertvalue %66, %85[3, 1] : !llvm.struct<(ptr, ptr, i64, array<4 x i64>, array<4 x i64>)> 
    %87 = llvm.insertvalue %67, %86[3, 2] : !llvm.struct<(ptr, ptr, i64, array<4 x i64>, array<4 x i64>)> 
    %88 = llvm.insertvalue %68, %87[3, 3] : !llvm.struct<(ptr, ptr, i64, array<4 x i64>, array<4 x i64>)> 
    %89 = llvm.insertvalue %71, %88[4, 0] : !llvm.struct<(ptr, ptr, i64, array<4 x i64>, array<4 x i64>)> 
    %90 = llvm.insertvalue %70, %89[4, 1] : !llvm.struct<(ptr, ptr, i64, array<4 x i64>, array<4 x i64>)> 
    %91 = llvm.insertvalue %68, %90[4, 2] : !llvm.struct<(ptr, ptr, i64, array<4 x i64>, array<4 x i64>)> 
    %92 = llvm.insertvalue %69, %91[4, 3] : !llvm.struct<(ptr, ptr, i64, array<4 x i64>, array<4 x i64>)> 
    %93 = builtin.unrealized_conversion_cast %92 : !llvm.struct<(ptr, ptr, i64, array<4 x i64>, array<4 x i64>)> to memref<6x3x7x7xf32>
    llvm.br ^bb1(%47 : i64)
  ^bb1(%94: i64):  // 2 preds: ^bb0, ^bb11
    %95 = builtin.unrealized_conversion_cast %94 : i64 to index
    %96 = builtin.unrealized_conversion_cast %95 : index to i64
    %97 = builtin.unrealized_conversion_cast %95 : index to i64
    %98 = llvm.icmp "slt" %97, %46 : i64
    llvm.cond_br %98, ^bb2, ^bb12
  ^bb2:  // pred: ^bb1
    llvm.br ^bb3(%47 : i64)
  ^bb3(%99: i64):  // 2 preds: ^bb2, ^bb10
    %100 = builtin.unrealized_conversion_cast %99 : i64 to index
    %101 = builtin.unrealized_conversion_cast %100 : index to i64
    %102 = builtin.unrealized_conversion_cast %100 : index to i64
    %103 = llvm.icmp "slt" %102, %45 : i64
    llvm.cond_br %103, ^bb4, ^bb11
  ^bb4:  // pred: ^bb3
    llvm.br ^bb5(%47 : i64)
  ^bb5(%104: i64):  // 2 preds: ^bb4, ^bb9
    %105 = builtin.unrealized_conversion_cast %104 : i64 to index
    %106 = builtin.unrealized_conversion_cast %105 : index to i64
    %107 = builtin.unrealized_conversion_cast %105 : index to i64
    %108 = llvm.icmp "slt" %107, %44 : i64
    llvm.cond_br %108, ^bb6, ^bb10
  ^bb6:  // pred: ^bb5
    llvm.br ^bb7(%47 : i64)
  ^bb7(%109: i64):  // 2 preds: ^bb6, ^bb8
    %110 = builtin.unrealized_conversion_cast %109 : i64 to index
    %111 = builtin.unrealized_conversion_cast %110 : index to i64
    %112 = builtin.unrealized_conversion_cast %110 : index to i64
    %113 = llvm.icmp "slt" %112, %44 : i64
    llvm.cond_br %113, ^bb8, ^bb9
  ^bb8:  // pred: ^bb7
    %114 = llvm.getelementptr %55[%101] : (!llvm.ptr, i64) -> !llvm.ptr, f32
    %115 = llvm.load %114 : !llvm.ptr -> f32
    %116 = llvm.extractvalue %43[1] : !llvm.struct<(ptr, ptr, i64, array<4 x i64>, array<4 x i64>)> 
    %117 = llvm.mlir.constant(20184 : index) : i64
    %118 = llvm.mul %96, %117  : i64
    %119 = llvm.mlir.constant(3364 : index) : i64
    %120 = llvm.mul %101, %119  : i64
    %121 = llvm.add %118, %120  : i64
    %122 = llvm.mlir.constant(58 : index) : i64
    %123 = llvm.mul %106, %122  : i64
    %124 = llvm.add %121, %123  : i64
    %125 = llvm.add %124, %111  : i64
    %126 = llvm.getelementptr %116[%125] : (!llvm.ptr, i64) -> !llvm.ptr, f32
    llvm.store %115, %126 : f32, !llvm.ptr
    %127 = llvm.add %112, %46  : i64
    %128 = builtin.unrealized_conversion_cast %127 : i64 to index
    llvm.br ^bb7(%127 : i64)
  ^bb9:  // pred: ^bb7
    %129 = llvm.add %107, %46  : i64
    %130 = builtin.unrealized_conversion_cast %129 : i64 to index
    llvm.br ^bb5(%129 : i64)
  ^bb10:  // pred: ^bb5
    %131 = llvm.add %102, %46  : i64
    %132 = builtin.unrealized_conversion_cast %131 : i64 to index
    llvm.br ^bb3(%131 : i64)
  ^bb11:  // pred: ^bb3
    %133 = llvm.add %97, %46  : i64
    %134 = builtin.unrealized_conversion_cast %133 : i64 to index
    llvm.br ^bb1(%133 : i64)
  ^bb12:  // pred: ^bb1
    %135 = llvm.extractvalue %20[1] : !llvm.struct<(ptr, ptr, i64, array<4 x i64>, array<4 x i64>)> 
    %136 = llvm.extractvalue %92[1] : !llvm.struct<(ptr, ptr, i64, array<4 x i64>, array<4 x i64>)> 
    %137 = llvm.extractvalue %41[1] : !llvm.struct<(ptr, ptr, i64, array<4 x i64>, array<4 x i64>)> 
    llvm.call @conv2d_kernel_0(%135, %136, %137) : (!llvm.ptr, !llvm.ptr, !llvm.ptr) -> ()
    llvm.return
  }
  llvm.func @conv2d_kernel_0(!llvm.ptr, !llvm.ptr, !llvm.ptr) attributes {sym_visibility = "private"}
}


// -----// IR Dump After CSE (cse) //----- //
module attributes {torch.debug_module_name = "Conv2d"} {
  llvm.mlir.global private constant @__constant_6x3x7x7xf32(dense<"…"> : tensor<6x3x7x7xf32>) {addr_space = 0 : i32} : !llvm.array<6 x array<3 x array<7 x array<7 x f32>>>>
  llvm.mlir.global private constant @__constant_6xf32(dense<[-0.0675533265, -0.0786442235, -7.646190e-02, -0.00229380699, -0.0799340755, -0.0737717897]> : tensor<6xf32>) {addr_space = 0 : i32} : !llvm.array<6 x f32>
  llvm.func @conv2d(%arg0: !llvm.ptr, %arg1: !llvm.ptr) {
    %0 = llvm.mlir.undef : !llvm.struct<(ptr, ptr, i64, array<4 x i64>, array<4 x i64>)>
    %1 = llvm.insertvalue %arg0, %0[0] : !llvm.struct<(ptr, ptr, i64, array<4 x i64>, array<4 x i64>)> 
    %2 = llvm.insertvalue %arg0, %1[1] : !llvm.struct<(ptr, ptr, i64, array<4 x i64>, array<4 x i64>)> 
    %3 = llvm.mlir.constant(0 : index) : i64
    %4 = llvm.insertvalue %3, %2[2] : !llvm.struct<(ptr, ptr, i64, array<4 x i64>, array<4 x i64>)> 
    %5 = llvm.mlir.constant(1 : index) : i64
    %6 = llvm.insertvalue %5, %4[3, 0] : !llvm.struct<(ptr, ptr, i64, array<4 x i64>, array<4 x i64>)> 
    %7 = llvm.mlir.constant(12288 : index) : i64
    %8 = llvm.insertvalue %7, %6[4, 0] : !llvm.struct<(ptr, ptr, i64, array<4 x i64>, array<4 x i64>)> 
    %9 = llvm.mlir.constant(3 : index) : i64
    %10 = llvm.insertvalue %9, %8[3, 1] : !llvm.struct<(ptr, ptr, i64, array<4 x i64>, array<4 x i64>)> 
    %11 = llvm.mlir.constant(4096 : index) : i64
    %12 = llvm.insertvalue %11, %10[4, 1] : !llvm.struct<(ptr, ptr, i64, array<4 x i64>, array<4 x i64>)> 
    %13 = llvm.mlir.constant(64 : index) : i64
    %14 = llvm.insertvalue %13, %12[3, 2] : !llvm.struct<(ptr, ptr, i64, array<4 x i64>, array<4 x i64>)> 
    %15 = llvm.insertvalue %13, %14[4, 2] : !llvm.struct<(ptr, ptr, i64, array<4 x i64>, array<4 x i64>)> 
    %16 = llvm.insertvalue %13, %15[3, 3] : !llvm.struct<(ptr, ptr, i64, array<4 x i64>, array<4 x i64>)> 
    %17 = llvm.insertvalue %5, %16[4, 3] : !llvm.struct<(ptr, ptr, i64, array<4 x i64>, array<4 x i64>)> 
    %18 = llvm.insertvalue %arg1, %0[0] : !llvm.struct<(ptr, ptr, i64, array<4 x i64>, array<4 x i64>)> 
    %19 = llvm.insertvalue %arg1, %18[1] : !llvm.struct<(ptr, ptr, i64, array<4 x i64>, array<4 x i64>)> 
    %20 = llvm.insertvalue %3, %19[2] : !llvm.struct<(ptr, ptr, i64, array<4 x i64>, array<4 x i64>)> 
    %21 = llvm.insertvalue %5, %20[3, 0] : !llvm.struct<(ptr, ptr, i64, array<4 x i64>, array<4 x i64>)> 
    %22 = llvm.mlir.constant(20184 : index) : i64
    %23 = llvm.insertvalue %22, %21[4, 0] : !llvm.struct<(ptr, ptr, i64, array<4 x i64>, array<4 x i64>)> 
    %24 = llvm.mlir.constant(6 : index) : i64
    %25 = llvm.insertvalue %24, %23[3, 1] : !llvm.struct<(ptr, ptr, i64, array<4 x i64>, array<4 x i64>)> 
    %26 = llvm.mlir.constant(3364 : index) : i64
    %27 = llvm.insertvalue %26, %25[4, 1] : !llvm.struct<(ptr, ptr, i64, array<4 x i64>, array<4 x i64>)> 
    %28 = llvm.mlir.constant(58 : index) : i64
    %29 = llvm.insertvalue %28, %27[3, 2] : !llvm.struct<(ptr, ptr, i64, array<4 x i64>, array<4 x i64>)> 
    %30 = llvm.insertvalue %28, %29[4, 2] : !llvm.struct<(ptr, ptr, i64, array<4 x i64>, array<4 x i64>)> 
    %31 = llvm.insertvalue %28, %30[3, 3] : !llvm.struct<(ptr, ptr, i64, array<4 x i64>, array<4 x i64>)> 
    %32 = llvm.insertvalue %5, %31[4, 3] : !llvm.struct<(ptr, ptr, i64, array<4 x i64>, array<4 x i64>)> 
    %33 = builtin.unrealized_conversion_cast %32 : !llvm.struct<(ptr, ptr, i64, array<4 x i64>, array<4 x i64>)> to memref<1x6x58x58xf32>
    %34 = builtin.unrealized_conversion_cast %33 : memref<1x6x58x58xf32> to !llvm.struct<(ptr, ptr, i64, array<4 x i64>, array<4 x i64>)>
    %35 = llvm.mlir.zero : !llvm.ptr
    %36 = llvm.getelementptr %35[6] : (!llvm.ptr) -> !llvm.ptr, f32
    %37 = llvm.mlir.addressof @__constant_6xf32 : !llvm.ptr
    %38 = llvm.getelementptr %37[0, 0] : (!llvm.ptr) -> !llvm.ptr, !llvm.array<6 x f32>
    %39 = llvm.mlir.constant(3735928559 : index) : i64
    %40 = llvm.inttoptr %39 : i64 to !llvm.ptr
    %41 = llvm.mlir.undef : !llvm.struct<(ptr, ptr, i64, array<1 x i64>, array<1 x i64>)>
    %42 = llvm.insertvalue %40, %41[0] : !llvm.struct<(ptr, ptr, i64, array<1 x i64>, array<1 x i64>)> 
    %43 = llvm.insertvalue %38, %42[1] : !llvm.struct<(ptr, ptr, i64, array<1 x i64>, array<1 x i64>)> 
    %44 = llvm.insertvalue %3, %43[2] : !llvm.struct<(ptr, ptr, i64, array<1 x i64>, array<1 x i64>)> 
    %45 = llvm.insertvalue %24, %44[3, 0] : !llvm.struct<(ptr, ptr, i64, array<1 x i64>, array<1 x i64>)> 
    %46 = llvm.mlir.constant(7 : index) : i64
    %47 = llvm.mlir.constant(49 : index) : i64
    %48 = llvm.mlir.constant(147 : index) : i64
    %49 = llvm.getelementptr %35[882] : (!llvm.ptr) -> !llvm.ptr, f32
    %50 = llvm.mlir.addressof @__constant_6x3x7x7xf32 : !llvm.ptr
    %51 = llvm.getelementptr %50[0, 0, 0, 0, 0] : (!llvm.ptr) -> !llvm.ptr, !llvm.array<6 x array<3 x array<7 x array<7 x f32>>>>
    %52 = llvm.insertvalue %40, %0[0] : !llvm.struct<(ptr, ptr, i64, array<4 x i64>, array<4 x i64>)> 
    %53 = llvm.insertvalue %51, %52[1] : !llvm.struct<(ptr, ptr, i64, array<4 x i64>, array<4 x i64>)> 
    %54 = llvm.insertvalue %3, %53[2] : !llvm.struct<(ptr, ptr, i64, array<4 x i64>, array<4 x i64>)> 
    %55 = llvm.insertvalue %24, %54[3, 0] : !llvm.struct<(ptr, ptr, i64, array<4 x i64>, array<4 x i64>)> 
    %56 = llvm.insertvalue %9, %55[3, 1] : !llvm.struct<(ptr, ptr, i64, array<4 x i64>, array<4 x i64>)> 
    %57 = llvm.insertvalue %46, %56[3, 2] : !llvm.struct<(ptr, ptr, i64, array<4 x i64>, array<4 x i64>)> 
    %58 = llvm.insertvalue %46, %57[3, 3] : !llvm.struct<(ptr, ptr, i64, array<4 x i64>, array<4 x i64>)> 
    %59 = llvm.insertvalue %48, %58[4, 0] : !llvm.struct<(ptr, ptr, i64, array<4 x i64>, array<4 x i64>)> 
    %60 = llvm.insertvalue %47, %59[4, 1] : !llvm.struct<(ptr, ptr, i64, array<4 x i64>, array<4 x i64>)> 
    %61 = llvm.insertvalue %46, %60[4, 2] : !llvm.struct<(ptr, ptr, i64, array<4 x i64>, array<4 x i64>)> 
    %62 = llvm.insertvalue %5, %61[4, 3] : !llvm.struct<(ptr, ptr, i64, array<4 x i64>, array<4 x i64>)> 
    llvm.br ^bb1(%3 : i64)
  ^bb1(%63: i64):  // 2 preds: ^bb0, ^bb11
    %64 = builtin.unrealized_conversion_cast %63 : i64 to index
    %65 = builtin.unrealized_conversion_cast %64 : index to i64
    %66 = llvm.icmp "slt" %65, %5 : i64
    llvm.cond_br %66, ^bb2, ^bb12
  ^bb2:  // pred: ^bb1
    llvm.br ^bb3(%3 : i64)
  ^bb3(%67: i64):  // 2 preds: ^bb2, ^bb10
    %68 = builtin.unrealized_conversion_cast %67 : i64 to index
    %69 = builtin.unrealized_conversion_cast %68 : index to i64
    %70 = llvm.icmp "slt" %69, %24 : i64
    llvm.cond_br %70, ^bb4, ^bb11
  ^bb4:  // pred: ^bb3
    llvm.br ^bb5(%3 : i64)
  ^bb5(%71: i64):  // 2 preds: ^bb4, ^bb9
    %72 = builtin.unrealized_conversion_cast %71 : i64 to index
    %73 = builtin.unrealized_conversion_cast %72 : index to i64
    %74 = llvm.icmp "slt" %73, %28 : i64
    llvm.cond_br %74, ^bb6, ^bb10
  ^bb6:  // pred: ^bb5
    llvm.br ^bb7(%3 : i64)
  ^bb7(%75: i64):  // 2 preds: ^bb6, ^bb8
    %76 = builtin.unrealized_conversion_cast %75 : i64 to index
    %77 = builtin.unrealized_conversion_cast %76 : index to i64
    %78 = llvm.icmp "slt" %77, %28 : i64
    llvm.cond_br %78, ^bb8, ^bb9
  ^bb8:  // pred: ^bb7
    %79 = llvm.getelementptr %38[%69] : (!llvm.ptr, i64) -> !llvm.ptr, f32
    %80 = llvm.load %79 : !llvm.ptr -> f32
    %81 = llvm.extractvalue %34[1] : !llvm.struct<(ptr, ptr, i64, array<4 x i64>, array<4 x i64>)> 
    %82 = llvm.mul %65, %22  : i64
    %83 = llvm.mul %69, %26  : i64
    %84 = llvm.add %82, %83  : i64
    %85 = llvm.mul %73, %28  : i64
    %86 = llvm.add %84, %85  : i64
    %87 = llvm.add %86, %77  : i64
    %88 = llvm.getelementptr %81[%87] : (!llvm.ptr, i64) -> !llvm.ptr, f32
    llvm.store %80, %88 : f32, !llvm.ptr
    %89 = llvm.add %77, %5  : i64
    llvm.br ^bb7(%89 : i64)
  ^bb9:  // pred: ^bb7
    %90 = llvm.add %73, %5  : i64
    llvm.br ^bb5(%90 : i64)
  ^bb10:  // pred: ^bb5
    %91 = llvm.add %69, %5  : i64
    llvm.br ^bb3(%91 : i64)
  ^bb11:  // pred: ^bb3
    %92 = llvm.add %65, %5  : i64
    llvm.br ^bb1(%92 : i64)
  ^bb12:  // pred: ^bb1
    %93 = llvm.extractvalue %17[1] : !llvm.struct<(ptr, ptr, i64, array<4 x i64>, array<4 x i64>)> 
    %94 = llvm.extractvalue %62[1] : !llvm.struct<(ptr, ptr, i64, array<4 x i64>, array<4 x i64>)> 
    %95 = llvm.extractvalue %32[1] : !llvm.struct<(ptr, ptr, i64, array<4 x i64>, array<4 x i64>)> 
    llvm.call @conv2d_kernel_0(%93, %94, %95) : (!llvm.ptr, !llvm.ptr, !llvm.ptr) -> ()
    llvm.return
  }
  llvm.func @conv2d_kernel_0(!llvm.ptr, !llvm.ptr, !llvm.ptr) attributes {sym_visibility = "private"}
}


// -----// IR Dump After Canonicalizer (canonicalize) //----- //
module attributes {torch.debug_module_name = "Conv2d"} {
  llvm.mlir.global private constant @__constant_6x3x7x7xf32(dense<"…"> : tensor<6x3x7x7xf32>) {addr_space = 0 : i32} : !llvm.array<6 x array<3 x array<7 x array<7 x f32>>>>
  llvm.mlir.global private constant @__constant_6xf32(dense<[-0.0675533265, -0.0786442235, -7.646190e-02, -0.00229380699, -0.0799340755, -0.0737717897]> : tensor<6xf32>) {addr_space = 0 : i32} : !llvm.array<6 x f32>
  llvm.func @conv2d(%arg0: !llvm.ptr, %arg1: !llvm.ptr) {
    %0 = llvm.mlir.constant(58 : index) : i64
    %1 = llvm.mlir.constant(3364 : index) : i64
    %2 = llvm.mlir.constant(6 : index) : i64
    %3 = llvm.mlir.constant(20184 : index) : i64
    %4 = llvm.mlir.constant(1 : index) : i64
    %5 = llvm.mlir.constant(0 : index) : i64
    %6 = llvm.mlir.addressof @__constant_6xf32 : !llvm.ptr
    %7 = llvm.getelementptr %6[0, 0] : (!llvm.ptr) -> !llvm.ptr, !llvm.array<6 x f32>
    %8 = llvm.mlir.addressof @__constant_6x3x7x7xf32 : !llvm.ptr
    %9 = llvm.getelementptr %8[0, 0, 0, 0, 0] : (!llvm.ptr) -> !llvm.ptr, !llvm.array<6 x array<3 x array<7 x array<7 x f32>>>>
    llvm.br ^bb1(%5 : i64)
  ^bb1(%10: i64):  // 2 preds: ^bb0, ^bb11
    %11 = llvm.icmp "slt" %10, %4 : i64
    llvm.cond_br %11, ^bb2, ^bb12
  ^bb2:  // pred: ^bb1
    llvm.br ^bb3(%5 : i64)
  ^bb3(%12: i64):  // 2 preds: ^bb2, ^bb10
    %13 = llvm.icmp "slt" %12, %2 : i64
    llvm.cond_br %13, ^bb4, ^bb11
  ^bb4:  // pred: ^bb3
    llvm.br ^bb5(%5 : i64)
  ^bb5(%14: i64):  // 2 preds: ^bb4, ^bb9
    %15 = llvm.icmp "slt" %14, %0 : i64
    llvm.cond_br %15, ^bb6, ^bb10
  ^bb6:  // pred: ^bb5
    llvm.br ^bb7(%5 : i64)
  ^bb7(%16: i64):  // 2 preds: ^bb6, ^bb8
    %17 = llvm.icmp "slt" %16, %0 : i64
    llvm.cond_br %17, ^bb8, ^bb9
  ^bb8:  // pred: ^bb7
    %18 = llvm.getelementptr %7[%12] : (!llvm.ptr, i64) -> !llvm.ptr, f32
    %19 = llvm.load %18 : !llvm.ptr -> f32
    %20 = llvm.mul %10, %3  : i64
    %21 = llvm.mul %12, %1  : i64
    %22 = llvm.add %20, %21  : i64
    %23 = llvm.mul %14, %0  : i64
    %24 = llvm.add %22, %23  : i64
    %25 = llvm.add %24, %16  : i64
    %26 = llvm.getelementptr %arg1[%25] : (!llvm.ptr, i64) -> !llvm.ptr, f32
    llvm.store %19, %26 : f32, !llvm.ptr
    %27 = llvm.add %16, %4  : i64
    llvm.br ^bb7(%27 : i64)
  ^bb9:  // pred: ^bb7
    %28 = llvm.add %14, %4  : i64
    llvm.br ^bb5(%28 : i64)
  ^bb10:  // pred: ^bb5
    %29 = llvm.add %12, %4  : i64
    llvm.br ^bb3(%29 : i64)
  ^bb11:  // pred: ^bb3
    %30 = llvm.add %10, %4  : i64
    llvm.br ^bb1(%30 : i64)
  ^bb12:  // pred: ^bb1
    llvm.call @conv2d_kernel_0(%arg0, %9, %arg1) : (!llvm.ptr, !llvm.ptr, !llvm.ptr) -> ()
    llvm.return
  }
  llvm.func @conv2d_kernel_0(!llvm.ptr, !llvm.ptr, !llvm.ptr) attributes {sym_visibility = "private"}
}


// -----// IR Dump After ReconcileUnrealizedCasts (reconcile-unrealized-casts) //----- //
module attributes {torch.debug_module_name = "Conv2d"} {
  llvm.mlir.global private constant @__constant_6x3x7x7xf32(dense<"…"> : tensor<6x3x7x7xf32>) {addr_space = 0 : i32} : !llvm.array<6 x array<3 x array<7 x array<7 x f32>>>>
  llvm.mlir.global private constant @__constant_6xf32(dense<[-0.0675533265, -0.0786442235, -7.646190e-02, -0.00229380699, -0.0799340755, -0.0737717897]> : tensor<6xf32>) {addr_space = 0 : i32} : !llvm.array<6 x f32>
  llvm.func @conv2d(%arg0: !llvm.ptr, %arg1: !llvm.ptr) {
    %0 = llvm.mlir.constant(58 : index) : i64
    %1 = llvm.mlir.constant(3364 : index) : i64
    %2 = llvm.mlir.constant(6 : index) : i64
    %3 = llvm.mlir.constant(20184 : index) : i64
    %4 = llvm.mlir.constant(1 : index) : i64
    %5 = llvm.mlir.constant(0 : index) : i64
    %6 = llvm.mlir.addressof @__constant_6xf32 : !llvm.ptr
    %7 = llvm.getelementptr %6[0, 0] : (!llvm.ptr) -> !llvm.ptr, !llvm.array<6 x f32>
    %8 = llvm.mlir.addressof @__constant_6x3x7x7xf32 : !llvm.ptr
    %9 = llvm.getelementptr %8[0, 0, 0, 0, 0] : (!llvm.ptr) -> !llvm.ptr, !llvm.array<6 x array<3 x array<7 x array<7 x f32>>>>
    llvm.br ^bb1(%5 : i64)
  ^bb1(%10: i64):  // 2 preds: ^bb0, ^bb11
    %11 = llvm.icmp "slt" %10, %4 : i64
    llvm.cond_br %11, ^bb2, ^bb12
  ^bb2:  // pred: ^bb1
    llvm.br ^bb3(%5 : i64)
  ^bb3(%12: i64):  // 2 preds: ^bb2, ^bb10
    %13 = llvm.icmp "slt" %12, %2 : i64
    llvm.cond_br %13, ^bb4, ^bb11
  ^bb4:  // pred: ^bb3
    llvm.br ^bb5(%5 : i64)
  ^bb5(%14: i64):  // 2 preds: ^bb4, ^bb9
    %15 = llvm.icmp "slt" %14, %0 : i64
    llvm.cond_br %15, ^bb6, ^bb10
  ^bb6:  // pred: ^bb5
    llvm.br ^bb7(%5 : i64)
  ^bb7(%16: i64):  // 2 preds: ^bb6, ^bb8
    %17 = llvm.icmp "slt" %16, %0 : i64
    llvm.cond_br %17, ^bb8, ^bb9
  ^bb8:  // pred: ^bb7
    %18 = llvm.getelementptr %7[%12] : (!llvm.ptr, i64) -> !llvm.ptr, f32
    %19 = llvm.load %18 : !llvm.ptr -> f32
    %20 = llvm.mul %10, %3  : i64
    %21 = llvm.mul %12, %1  : i64
    %22 = llvm.add %20, %21  : i64
    %23 = llvm.mul %14, %0  : i64
    %24 = llvm.add %22, %23  : i64
    %25 = llvm.add %24, %16  : i64
    %26 = llvm.getelementptr %arg1[%25] : (!llvm.ptr, i64) -> !llvm.ptr, f32
    llvm.store %19, %26 : f32, !llvm.ptr
    %27 = llvm.add %16, %4  : i64
    llvm.br ^bb7(%27 : i64)
  ^bb9:  // pred: ^bb7
    %28 = llvm.add %14, %4  : i64
    llvm.br ^bb5(%28 : i64)
  ^bb10:  // pred: ^bb5
    %29 = llvm.add %12, %4  : i64
    llvm.br ^bb3(%29 : i64)
  ^bb11:  // pred: ^bb3
    %30 = llvm.add %10, %4  : i64
    llvm.br ^bb1(%30 : i64)
  ^bb12:  // pred: ^bb1
    llvm.call @conv2d_kernel_0(%arg0, %9, %arg1) : (!llvm.ptr, !llvm.ptr, !llvm.ptr) -> ()
    llvm.return
  }
  llvm.func @conv2d_kernel_0(!llvm.ptr, !llvm.ptr, !llvm.ptr) attributes {sym_visibility = "private"}
}


