module attributes {torch.debug_module_name = "Conv2d"} {
  func.func @forward(%arg0: tensor<1x3x64x64xf32>) -> tensor<1x6x58x58xf32> {
    %0 = "tosa.const"() <{value = dense<[-0.0675533265, -0.0786442235, -7.646190e-02, -0.00229380699, -0.0799340755, -0.0737717897]> : tensor<6xf32>}> : () -> tensor<6xf32>
    %1 = "tosa.const"() <{value = dense<"…"> : tensor<6x3x7x7xf32>}> : () -> tensor<6x3x7x7xf32>
    %2 = "tosa.const"() <{value = dense<[0, 2, 3, 1]> : tensor<4xi32>}> : () -> tensor<4xi32>
    %3 = "tosa.const"() <{value = dense<[0, 3, 1, 2]> : tensor<4xi32>}> : () -> tensor<4xi32>
    %4 = tosa.transpose %arg0, %2 : (tensor<1x3x64x64xf32>, tensor<4xi32>) -> tensor<1x64x64x3xf32>
    %5 = tosa.transpose %1, %2 : (tensor<6x3x7x7xf32>, tensor<4xi32>) -> tensor<6x7x7x3xf32>
    %6 = tosa.conv2d %4, %5, %0 {dilation = array<i64: 1, 1>, pad = array<i64: 0, 0, 0, 0>, stride = array<i64: 1, 1>} : (tensor<1x64x64x3xf32>, tensor<6x7x7x3xf32>, tensor<6xf32>) -> tensor<1x58x58x6xf32>
    %7 = tosa.transpose %6, %3 : (tensor<1x58x58x6xf32>, tensor<4xi32>) -> tensor<1x6x58x58xf32>
    return %7 : tensor<1x6x58x58xf32>
  }
}

