module attributes {torch.debug_module_name = "Linear"} {
  memref.global "private" constant @__constant_64x128xf32 : memref<64x128xf32> = dense<"…">
  memref.global "private" constant @__constant_64xf32 : memref<64xf32> = dense<[… >
  // ml_program.global private mutable @global_seed(dense<0> : tensor<i64>) : tensor<i64>
  func.func @forward(%arg0: memref<64x128xf32>) -> memref<64x64xf32> {
    %cst = arith.constant 0.000000e+00 : f32
    %0 = memref.get_global @__constant_64xf32 : memref<64xf32>
    %1 = memref.get_global @__constant_64x128xf32 : memref<64x128xf32>
    %alloc = memref.alloc() {alignment = 64 : i64} : memref<128x64xf32>
    affine.for %arg1 = 0 to 64 {
      affine.for %arg2 = 0 to 128 {
        %2 = affine.load %1[%arg1, %arg2] : memref<64x128xf32>
        affine.store %2, %alloc[%arg2, %arg1] : memref<128x64xf32>
      }
    }
    %alloc_0 = memref.alloc() {alignment = 64 : i64} : memref<64x64xf32>
    // affine.for %arg1 = 0 to 64 {
    //   affine.for %arg2 = 0 to 64 {
    //     affine.store %cst, %alloc_0[%arg1, %arg2] : memref<64x64xf32>
    //   }
    // }
    // %alloc_1 = memref.alloc() {alignment = 64 : i64} : memref<64x64xf32>
    // memref.copy %alloc_1, %alloc_0 : memref<64x64xf32> to memref<64x64xf32>
    call @forward_kernel_0(%arg0, %alloc, %alloc_0) : (memref<64x128xf32>, memref<128x64xf32>, memref<64x64xf32>) -> ()
    %alloc_2 = memref.alloc() {alignment = 64 : i64} : memref<64x64xf32>
    call @forward_kernel_1(%alloc_0, %0, %alloc_2) : (memref<64x64xf32>, memref<64xf32>, memref<64x64xf32>) -> ()
    return %alloc_2 : memref<64x64xf32>
  }
  func.func private @forward_kernel_0(memref<64x128xf32>, memref<128x64xf32>, memref<64x64xf32>)
  func.func private @forward_kernel_1(memref<64x64xf32>, memref<64xf32>, memref<64x64xf32>)
}

